{
  "nodes": [
    {
      "op": "null", 
      "name": "gt_cls", 
      "inputs": []
    }, 
    {
      "op": "null", 
      "name": "data", 
      "inputs": []
    }, 
    {
      "op": "SliceChannel", 
      "name": "split0", 
      "attr": {
        "axis": "1", 
        "num_outputs": "3"
      }, 
      "inputs": [[1, 0, 0]]
    }, 
    {
      "op": "_minus_scalar", 
      "name": "_minusscalar0", 
      "attr": {"scalar": "124"}, 
      "inputs": [[2, 0, 0]]
    }, 
    {
      "op": "_minus_scalar", 
      "name": "_minusscalar1", 
      "attr": {"scalar": "117"}, 
      "inputs": [[2, 1, 0]]
    }, 
    {
      "op": "_minus_scalar", 
      "name": "_minusscalar2", 
      "attr": {"scalar": "104"}, 
      "inputs": [[2, 2, 0]]
    }, 
    {
      "op": "Concat", 
      "name": "concat0", 
      "attr": {
        "dim": "1", 
        "num_args": "3"
      }, 
      "inputs": [[3, 0, 0], [4, 0, 0], [5, 0, 0]]
    }, 
    {
      "op": "null", 
      "name": "conv0_weight", 
      "attr": {
        "kernel": "(7, 7)", 
        "no_bias": "True", 
        "num_filter": "64", 
        "pad": "(3, 3)", 
        "stride": "(2, 2)"
      }, 
      "inputs": []
    }, 
    {
      "op": "Convolution", 
      "name": "conv0", 
      "attr": {
        "kernel": "(7, 7)", 
        "no_bias": "True", 
        "num_filter": "64", 
        "pad": "(3, 3)", 
        "stride": "(2, 2)"
      }, 
      "inputs": [[6, 0, 0], [7, 0, 0]]
    }, 
    {
      "op": "null", 
      "name": "bn0_gamma", 
      "attr": {
        "eps": "1e-05", 
        "fix_gamma": "False", 
        "momentum": "0.997", 
        "use_global_stats": "False"
      }, 
      "inputs": []
    }, 
    {
      "op": "null", 
      "name": "bn0_beta", 
      "attr": {
        "eps": "1e-05", 
        "fix_gamma": "False", 
        "momentum": "0.997", 
        "use_global_stats": "False"
      }, 
      "inputs": []
    }, 
    {
      "op": "null", 
      "name": "bn0_moving_mean", 
      "attr": {
        "__init__": "[\"zero\", {}]", 
        "eps": "1e-05", 
        "fix_gamma": "False", 
        "momentum": "0.997", 
        "use_global_stats": "False"
      }, 
      "inputs": []
    }, 
    {
      "op": "null", 
      "name": "bn0_moving_var", 
      "attr": {
        "__init__": "[\"one\", {}]", 
        "eps": "1e-05", 
        "fix_gamma": "False", 
        "momentum": "0.997", 
        "use_global_stats": "False"
      }, 
      "inputs": []
    }, 
    {
      "op": "BatchNorm", 
      "name": "bn0", 
      "attr": {
        "eps": "1e-05", 
        "fix_gamma": "False", 
        "momentum": "0.997", 
        "use_global_stats": "False"
      }, 
      "inputs": [[8, 0, 0], [9, 0, 0], [10, 0, 0], [11, 0, 1], [12, 0, 1]]
    }, 
    {
      "op": "Activation", 
      "name": "relu0", 
      "attr": {"act_type": "relu"}, 
      "inputs": [[13, 0, 0]]
    }, 
    {
      "op": "Pooling", 
      "name": "pool2", 
      "attr": {
        "kernel": "(3, 3)", 
        "pool_type": "max", 
        "pooling_convention": "full", 
        "stride": "(2, 2)"
      }, 
      "inputs": [[14, 0, 0]]
    }, 
    {
      "op": "null", 
      "name": "stage1_unit1_conv1_weight", 
      "attr": {
        "kernel": "(1, 1)", 
        "no_bias": "True", 
        "num_filter": "64", 
        "pad": "(0, 0)", 
        "stride": "(1, 1)"
      }, 
      "inputs": []
    }, 
    {
      "op": "Convolution", 
      "name": "stage1_unit1_conv1", 
      "attr": {
        "kernel": "(1, 1)", 
        "no_bias": "True", 
        "num_filter": "64", 
        "pad": "(0, 0)", 
        "stride": "(1, 1)"
      }, 
      "inputs": [[15, 0, 0], [16, 0, 0]]
    }, 
    {
      "op": "null", 
      "name": "stage1_unit1_bn1_gamma", 
      "attr": {
        "eps": "1e-05", 
        "fix_gamma": "False", 
        "momentum": "0.997", 
        "use_global_stats": "False"
      }, 
      "inputs": []
    }, 
    {
      "op": "null", 
      "name": "stage1_unit1_bn1_beta", 
      "attr": {
        "eps": "1e-05", 
        "fix_gamma": "False", 
        "momentum": "0.997", 
        "use_global_stats": "False"
      }, 
      "inputs": []
    }, 
    {
      "op": "null", 
      "name": "stage1_unit1_bn1_moving_mean", 
      "attr": {
        "__init__": "[\"zero\", {}]", 
        "eps": "1e-05", 
        "fix_gamma": "False", 
        "momentum": "0.997", 
        "use_global_stats": "False"
      }, 
      "inputs": []
    }, 
    {
      "op": "null", 
      "name": "stage1_unit1_bn1_moving_var", 
      "attr": {
        "__init__": "[\"one\", {}]", 
        "eps": "1e-05", 
        "fix_gamma": "False", 
        "momentum": "0.997", 
        "use_global_stats": "False"
      }, 
      "inputs": []
    }, 
    {
      "op": "BatchNorm", 
      "name": "stage1_unit1_bn1", 
      "attr": {
        "eps": "1e-05", 
        "fix_gamma": "False", 
        "momentum": "0.997", 
        "use_global_stats": "False"
      }, 
      "inputs": [[17, 0, 0], [18, 0, 0], [19, 0, 0], [20, 0, 1], [21, 0, 1]]
    }, 
    {
      "op": "Activation", 
      "name": "stage1_unit1_relu1", 
      "attr": {"act_type": "relu"}, 
      "inputs": [[22, 0, 0]]
    }, 
    {
      "op": "null", 
      "name": "stage1_unit1_conv2_weight", 
      "attr": {
        "kernel": "(3, 3)", 
        "no_bias": "True", 
        "num_filter": "64", 
        "pad": "(1, 1)", 
        "stride": "(1, 1)"
      }, 
      "inputs": []
    }, 
    {
      "op": "Convolution", 
      "name": "stage1_unit1_conv2", 
      "attr": {
        "kernel": "(3, 3)", 
        "no_bias": "True", 
        "num_filter": "64", 
        "pad": "(1, 1)", 
        "stride": "(1, 1)"
      }, 
      "inputs": [[23, 0, 0], [24, 0, 0]]
    }, 
    {
      "op": "null", 
      "name": "stage1_unit1_bn2_gamma", 
      "attr": {
        "eps": "1e-05", 
        "fix_gamma": "False", 
        "momentum": "0.997", 
        "use_global_stats": "False"
      }, 
      "inputs": []
    }, 
    {
      "op": "null", 
      "name": "stage1_unit1_bn2_beta", 
      "attr": {
        "eps": "1e-05", 
        "fix_gamma": "False", 
        "momentum": "0.997", 
        "use_global_stats": "False"
      }, 
      "inputs": []
    }, 
    {
      "op": "null", 
      "name": "stage1_unit1_bn2_moving_mean", 
      "attr": {
        "__init__": "[\"zero\", {}]", 
        "eps": "1e-05", 
        "fix_gamma": "False", 
        "momentum": "0.997", 
        "use_global_stats": "False"
      }, 
      "inputs": []
    }, 
    {
      "op": "null", 
      "name": "stage1_unit1_bn2_moving_var", 
      "attr": {
        "__init__": "[\"one\", {}]", 
        "eps": "1e-05", 
        "fix_gamma": "False", 
        "momentum": "0.997", 
        "use_global_stats": "False"
      }, 
      "inputs": []
    }, 
    {
      "op": "BatchNorm", 
      "name": "stage1_unit1_bn2", 
      "attr": {
        "eps": "1e-05", 
        "fix_gamma": "False", 
        "momentum": "0.997", 
        "use_global_stats": "False"
      }, 
      "inputs": [[25, 0, 0], [26, 0, 0], [27, 0, 0], [28, 0, 1], [29, 0, 1]]
    }, 
    {
      "op": "Activation", 
      "name": "stage1_unit1_relu2", 
      "attr": {"act_type": "relu"}, 
      "inputs": [[30, 0, 0]]
    }, 
    {
      "op": "null", 
      "name": "stage1_unit1_conv3_weight", 
      "attr": {
        "kernel": "(1, 1)", 
        "no_bias": "True", 
        "num_filter": "256", 
        "pad": "(0, 0)", 
        "stride": "(1, 1)"
      }, 
      "inputs": []
    }, 
    {
      "op": "Convolution", 
      "name": "stage1_unit1_conv3", 
      "attr": {
        "kernel": "(1, 1)", 
        "no_bias": "True", 
        "num_filter": "256", 
        "pad": "(0, 0)", 
        "stride": "(1, 1)"
      }, 
      "inputs": [[31, 0, 0], [32, 0, 0]]
    }, 
    {
      "op": "null", 
      "name": "stage1_unit1_bn3_gamma", 
      "attr": {
        "eps": "1e-05", 
        "fix_gamma": "False", 
        "momentum": "0.997", 
        "use_global_stats": "False"
      }, 
      "inputs": []
    }, 
    {
      "op": "null", 
      "name": "stage1_unit1_bn3_beta", 
      "attr": {
        "eps": "1e-05", 
        "fix_gamma": "False", 
        "momentum": "0.997", 
        "use_global_stats": "False"
      }, 
      "inputs": []
    }, 
    {
      "op": "null", 
      "name": "stage1_unit1_bn3_moving_mean", 
      "attr": {
        "__init__": "[\"zero\", {}]", 
        "eps": "1e-05", 
        "fix_gamma": "False", 
        "momentum": "0.997", 
        "use_global_stats": "False"
      }, 
      "inputs": []
    }, 
    {
      "op": "null", 
      "name": "stage1_unit1_bn3_moving_var", 
      "attr": {
        "__init__": "[\"one\", {}]", 
        "eps": "1e-05", 
        "fix_gamma": "False", 
        "momentum": "0.997", 
        "use_global_stats": "False"
      }, 
      "inputs": []
    }, 
    {
      "op": "BatchNorm", 
      "name": "stage1_unit1_bn3", 
      "attr": {
        "eps": "1e-05", 
        "fix_gamma": "False", 
        "momentum": "0.997", 
        "use_global_stats": "False"
      }, 
      "inputs": [[33, 0, 0], [34, 0, 0], [35, 0, 0], [36, 0, 1], [37, 0, 1]]
    }, 
    {
      "op": "null", 
      "name": "stage1_unit1_sc_conv_weight", 
      "attr": {
        "kernel": "(1, 1)", 
        "no_bias": "True", 
        "num_filter": "256", 
        "pad": "(0, 0)", 
        "stride": "(1, 1)"
      }, 
      "inputs": []
    }, 
    {
      "op": "Convolution", 
      "name": "stage1_unit1_sc_conv", 
      "attr": {
        "kernel": "(1, 1)", 
        "no_bias": "True", 
        "num_filter": "256", 
        "pad": "(0, 0)", 
        "stride": "(1, 1)"
      }, 
      "inputs": [[15, 0, 0], [39, 0, 0]]
    }, 
    {
      "op": "null", 
      "name": "stage1_unit1_sc_bn_gamma", 
      "attr": {
        "eps": "1e-05", 
        "fix_gamma": "False", 
        "momentum": "0.997", 
        "use_global_stats": "False"
      }, 
      "inputs": []
    }, 
    {
      "op": "null", 
      "name": "stage1_unit1_sc_bn_beta", 
      "attr": {
        "eps": "1e-05", 
        "fix_gamma": "False", 
        "momentum": "0.997", 
        "use_global_stats": "False"
      }, 
      "inputs": []
    }, 
    {
      "op": "null", 
      "name": "stage1_unit1_sc_bn_moving_mean", 
      "attr": {
        "__init__": "[\"zero\", {}]", 
        "eps": "1e-05", 
        "fix_gamma": "False", 
        "momentum": "0.997", 
        "use_global_stats": "False"
      }, 
      "inputs": []
    }, 
    {
      "op": "null", 
      "name": "stage1_unit1_sc_bn_moving_var", 
      "attr": {
        "__init__": "[\"one\", {}]", 
        "eps": "1e-05", 
        "fix_gamma": "False", 
        "momentum": "0.997", 
        "use_global_stats": "False"
      }, 
      "inputs": []
    }, 
    {
      "op": "BatchNorm", 
      "name": "stage1_unit1_sc_bn", 
      "attr": {
        "eps": "1e-05", 
        "fix_gamma": "False", 
        "momentum": "0.997", 
        "use_global_stats": "False"
      }, 
      "inputs": [[40, 0, 0], [41, 0, 0], [42, 0, 0], [43, 0, 1], [44, 0, 1]]
    }, 
    {
      "op": "elemwise_add", 
      "name": "_plus0", 
      "inputs": [[38, 0, 0], [45, 0, 0]]
    }, 
    {
      "op": "Activation", 
      "name": "stage1_unit1_relu3", 
      "attr": {"act_type": "relu"}, 
      "inputs": [[46, 0, 0]]
    }, 
    {
      "op": "null", 
      "name": "stage1_unit2_conv1_weight", 
      "attr": {
        "kernel": "(1, 1)", 
        "no_bias": "True", 
        "num_filter": "64", 
        "pad": "(0, 0)", 
        "stride": "(1, 1)"
      }, 
      "inputs": []
    }, 
    {
      "op": "Convolution", 
      "name": "stage1_unit2_conv1", 
      "attr": {
        "kernel": "(1, 1)", 
        "no_bias": "True", 
        "num_filter": "64", 
        "pad": "(0, 0)", 
        "stride": "(1, 1)"
      }, 
      "inputs": [[47, 0, 0], [48, 0, 0]]
    }, 
    {
      "op": "null", 
      "name": "stage1_unit2_bn1_gamma", 
      "attr": {
        "eps": "1e-05", 
        "fix_gamma": "False", 
        "momentum": "0.997", 
        "use_global_stats": "False"
      }, 
      "inputs": []
    }, 
    {
      "op": "null", 
      "name": "stage1_unit2_bn1_beta", 
      "attr": {
        "eps": "1e-05", 
        "fix_gamma": "False", 
        "momentum": "0.997", 
        "use_global_stats": "False"
      }, 
      "inputs": []
    }, 
    {
      "op": "null", 
      "name": "stage1_unit2_bn1_moving_mean", 
      "attr": {
        "__init__": "[\"zero\", {}]", 
        "eps": "1e-05", 
        "fix_gamma": "False", 
        "momentum": "0.997", 
        "use_global_stats": "False"
      }, 
      "inputs": []
    }, 
    {
      "op": "null", 
      "name": "stage1_unit2_bn1_moving_var", 
      "attr": {
        "__init__": "[\"one\", {}]", 
        "eps": "1e-05", 
        "fix_gamma": "False", 
        "momentum": "0.997", 
        "use_global_stats": "False"
      }, 
      "inputs": []
    }, 
    {
      "op": "BatchNorm", 
      "name": "stage1_unit2_bn1", 
      "attr": {
        "eps": "1e-05", 
        "fix_gamma": "False", 
        "momentum": "0.997", 
        "use_global_stats": "False"
      }, 
      "inputs": [[49, 0, 0], [50, 0, 0], [51, 0, 0], [52, 0, 1], [53, 0, 1]]
    }, 
    {
      "op": "Activation", 
      "name": "stage1_unit2_relu1", 
      "attr": {"act_type": "relu"}, 
      "inputs": [[54, 0, 0]]
    }, 
    {
      "op": "null", 
      "name": "stage1_unit2_conv2_weight", 
      "attr": {
        "kernel": "(3, 3)", 
        "no_bias": "True", 
        "num_filter": "64", 
        "pad": "(1, 1)", 
        "stride": "(1, 1)"
      }, 
      "inputs": []
    }, 
    {
      "op": "Convolution", 
      "name": "stage1_unit2_conv2", 
      "attr": {
        "kernel": "(3, 3)", 
        "no_bias": "True", 
        "num_filter": "64", 
        "pad": "(1, 1)", 
        "stride": "(1, 1)"
      }, 
      "inputs": [[55, 0, 0], [56, 0, 0]]
    }, 
    {
      "op": "null", 
      "name": "stage1_unit2_bn2_gamma", 
      "attr": {
        "eps": "1e-05", 
        "fix_gamma": "False", 
        "momentum": "0.997", 
        "use_global_stats": "False"
      }, 
      "inputs": []
    }, 
    {
      "op": "null", 
      "name": "stage1_unit2_bn2_beta", 
      "attr": {
        "eps": "1e-05", 
        "fix_gamma": "False", 
        "momentum": "0.997", 
        "use_global_stats": "False"
      }, 
      "inputs": []
    }, 
    {
      "op": "null", 
      "name": "stage1_unit2_bn2_moving_mean", 
      "attr": {
        "__init__": "[\"zero\", {}]", 
        "eps": "1e-05", 
        "fix_gamma": "False", 
        "momentum": "0.997", 
        "use_global_stats": "False"
      }, 
      "inputs": []
    }, 
    {
      "op": "null", 
      "name": "stage1_unit2_bn2_moving_var", 
      "attr": {
        "__init__": "[\"one\", {}]", 
        "eps": "1e-05", 
        "fix_gamma": "False", 
        "momentum": "0.997", 
        "use_global_stats": "False"
      }, 
      "inputs": []
    }, 
    {
      "op": "BatchNorm", 
      "name": "stage1_unit2_bn2", 
      "attr": {
        "eps": "1e-05", 
        "fix_gamma": "False", 
        "momentum": "0.997", 
        "use_global_stats": "False"
      }, 
      "inputs": [[57, 0, 0], [58, 0, 0], [59, 0, 0], [60, 0, 1], [61, 0, 1]]
    }, 
    {
      "op": "Activation", 
      "name": "stage1_unit2_relu2", 
      "attr": {"act_type": "relu"}, 
      "inputs": [[62, 0, 0]]
    }, 
    {
      "op": "null", 
      "name": "stage1_unit2_conv3_weight", 
      "attr": {
        "kernel": "(1, 1)", 
        "no_bias": "True", 
        "num_filter": "256", 
        "pad": "(0, 0)", 
        "stride": "(1, 1)"
      }, 
      "inputs": []
    }, 
    {
      "op": "Convolution", 
      "name": "stage1_unit2_conv3", 
      "attr": {
        "kernel": "(1, 1)", 
        "no_bias": "True", 
        "num_filter": "256", 
        "pad": "(0, 0)", 
        "stride": "(1, 1)"
      }, 
      "inputs": [[63, 0, 0], [64, 0, 0]]
    }, 
    {
      "op": "null", 
      "name": "stage1_unit2_bn3_gamma", 
      "attr": {
        "eps": "1e-05", 
        "fix_gamma": "False", 
        "momentum": "0.997", 
        "use_global_stats": "False"
      }, 
      "inputs": []
    }, 
    {
      "op": "null", 
      "name": "stage1_unit2_bn3_beta", 
      "attr": {
        "eps": "1e-05", 
        "fix_gamma": "False", 
        "momentum": "0.997", 
        "use_global_stats": "False"
      }, 
      "inputs": []
    }, 
    {
      "op": "null", 
      "name": "stage1_unit2_bn3_moving_mean", 
      "attr": {
        "__init__": "[\"zero\", {}]", 
        "eps": "1e-05", 
        "fix_gamma": "False", 
        "momentum": "0.997", 
        "use_global_stats": "False"
      }, 
      "inputs": []
    }, 
    {
      "op": "null", 
      "name": "stage1_unit2_bn3_moving_var", 
      "attr": {
        "__init__": "[\"one\", {}]", 
        "eps": "1e-05", 
        "fix_gamma": "False", 
        "momentum": "0.997", 
        "use_global_stats": "False"
      }, 
      "inputs": []
    }, 
    {
      "op": "BatchNorm", 
      "name": "stage1_unit2_bn3", 
      "attr": {
        "eps": "1e-05", 
        "fix_gamma": "False", 
        "momentum": "0.997", 
        "use_global_stats": "False"
      }, 
      "inputs": [[65, 0, 0], [66, 0, 0], [67, 0, 0], [68, 0, 1], [69, 0, 1]]
    }, 
    {
      "op": "elemwise_add", 
      "name": "_plus1", 
      "inputs": [[70, 0, 0], [47, 0, 0]]
    }, 
    {
      "op": "Activation", 
      "name": "stage1_unit2_relu3", 
      "attr": {"act_type": "relu"}, 
      "inputs": [[71, 0, 0]]
    }, 
    {
      "op": "null", 
      "name": "stage1_unit3_conv1_weight", 
      "attr": {
        "kernel": "(1, 1)", 
        "no_bias": "True", 
        "num_filter": "64", 
        "pad": "(0, 0)", 
        "stride": "(1, 1)"
      }, 
      "inputs": []
    }, 
    {
      "op": "Convolution", 
      "name": "stage1_unit3_conv1", 
      "attr": {
        "kernel": "(1, 1)", 
        "no_bias": "True", 
        "num_filter": "64", 
        "pad": "(0, 0)", 
        "stride": "(1, 1)"
      }, 
      "inputs": [[72, 0, 0], [73, 0, 0]]
    }, 
    {
      "op": "null", 
      "name": "stage1_unit3_bn1_gamma", 
      "attr": {
        "eps": "1e-05", 
        "fix_gamma": "False", 
        "momentum": "0.997", 
        "use_global_stats": "False"
      }, 
      "inputs": []
    }, 
    {
      "op": "null", 
      "name": "stage1_unit3_bn1_beta", 
      "attr": {
        "eps": "1e-05", 
        "fix_gamma": "False", 
        "momentum": "0.997", 
        "use_global_stats": "False"
      }, 
      "inputs": []
    }, 
    {
      "op": "null", 
      "name": "stage1_unit3_bn1_moving_mean", 
      "attr": {
        "__init__": "[\"zero\", {}]", 
        "eps": "1e-05", 
        "fix_gamma": "False", 
        "momentum": "0.997", 
        "use_global_stats": "False"
      }, 
      "inputs": []
    }, 
    {
      "op": "null", 
      "name": "stage1_unit3_bn1_moving_var", 
      "attr": {
        "__init__": "[\"one\", {}]", 
        "eps": "1e-05", 
        "fix_gamma": "False", 
        "momentum": "0.997", 
        "use_global_stats": "False"
      }, 
      "inputs": []
    }, 
    {
      "op": "BatchNorm", 
      "name": "stage1_unit3_bn1", 
      "attr": {
        "eps": "1e-05", 
        "fix_gamma": "False", 
        "momentum": "0.997", 
        "use_global_stats": "False"
      }, 
      "inputs": [[74, 0, 0], [75, 0, 0], [76, 0, 0], [77, 0, 1], [78, 0, 1]]
    }, 
    {
      "op": "Activation", 
      "name": "stage1_unit3_relu1", 
      "attr": {"act_type": "relu"}, 
      "inputs": [[79, 0, 0]]
    }, 
    {
      "op": "null", 
      "name": "stage1_unit3_conv2_weight", 
      "attr": {
        "kernel": "(3, 3)", 
        "no_bias": "True", 
        "num_filter": "64", 
        "pad": "(1, 1)", 
        "stride": "(2, 2)"
      }, 
      "inputs": []
    }, 
    {
      "op": "Convolution", 
      "name": "stage1_unit3_conv2", 
      "attr": {
        "kernel": "(3, 3)", 
        "no_bias": "True", 
        "num_filter": "64", 
        "pad": "(1, 1)", 
        "stride": "(2, 2)"
      }, 
      "inputs": [[80, 0, 0], [81, 0, 0]]
    }, 
    {
      "op": "null", 
      "name": "stage1_unit3_bn2_gamma", 
      "attr": {
        "eps": "1e-05", 
        "fix_gamma": "False", 
        "momentum": "0.997", 
        "use_global_stats": "False"
      }, 
      "inputs": []
    }, 
    {
      "op": "null", 
      "name": "stage1_unit3_bn2_beta", 
      "attr": {
        "eps": "1e-05", 
        "fix_gamma": "False", 
        "momentum": "0.997", 
        "use_global_stats": "False"
      }, 
      "inputs": []
    }, 
    {
      "op": "null", 
      "name": "stage1_unit3_bn2_moving_mean", 
      "attr": {
        "__init__": "[\"zero\", {}]", 
        "eps": "1e-05", 
        "fix_gamma": "False", 
        "momentum": "0.997", 
        "use_global_stats": "False"
      }, 
      "inputs": []
    }, 
    {
      "op": "null", 
      "name": "stage1_unit3_bn2_moving_var", 
      "attr": {
        "__init__": "[\"one\", {}]", 
        "eps": "1e-05", 
        "fix_gamma": "False", 
        "momentum": "0.997", 
        "use_global_stats": "False"
      }, 
      "inputs": []
    }, 
    {
      "op": "BatchNorm", 
      "name": "stage1_unit3_bn2", 
      "attr": {
        "eps": "1e-05", 
        "fix_gamma": "False", 
        "momentum": "0.997", 
        "use_global_stats": "False"
      }, 
      "inputs": [[82, 0, 0], [83, 0, 0], [84, 0, 0], [85, 0, 1], [86, 0, 1]]
    }, 
    {
      "op": "Activation", 
      "name": "stage1_unit3_relu2", 
      "attr": {"act_type": "relu"}, 
      "inputs": [[87, 0, 0]]
    }, 
    {
      "op": "null", 
      "name": "stage1_unit3_conv3_weight", 
      "attr": {
        "kernel": "(1, 1)", 
        "no_bias": "True", 
        "num_filter": "256", 
        "pad": "(0, 0)", 
        "stride": "(1, 1)"
      }, 
      "inputs": []
    }, 
    {
      "op": "Convolution", 
      "name": "stage1_unit3_conv3", 
      "attr": {
        "kernel": "(1, 1)", 
        "no_bias": "True", 
        "num_filter": "256", 
        "pad": "(0, 0)", 
        "stride": "(1, 1)"
      }, 
      "inputs": [[88, 0, 0], [89, 0, 0]]
    }, 
    {
      "op": "null", 
      "name": "stage1_unit3_bn3_gamma", 
      "attr": {
        "eps": "1e-05", 
        "fix_gamma": "False", 
        "momentum": "0.997", 
        "use_global_stats": "False"
      }, 
      "inputs": []
    }, 
    {
      "op": "null", 
      "name": "stage1_unit3_bn3_beta", 
      "attr": {
        "eps": "1e-05", 
        "fix_gamma": "False", 
        "momentum": "0.997", 
        "use_global_stats": "False"
      }, 
      "inputs": []
    }, 
    {
      "op": "null", 
      "name": "stage1_unit3_bn3_moving_mean", 
      "attr": {
        "__init__": "[\"zero\", {}]", 
        "eps": "1e-05", 
        "fix_gamma": "False", 
        "momentum": "0.997", 
        "use_global_stats": "False"
      }, 
      "inputs": []
    }, 
    {
      "op": "null", 
      "name": "stage1_unit3_bn3_moving_var", 
      "attr": {
        "__init__": "[\"one\", {}]", 
        "eps": "1e-05", 
        "fix_gamma": "False", 
        "momentum": "0.997", 
        "use_global_stats": "False"
      }, 
      "inputs": []
    }, 
    {
      "op": "BatchNorm", 
      "name": "stage1_unit3_bn3", 
      "attr": {
        "eps": "1e-05", 
        "fix_gamma": "False", 
        "momentum": "0.997", 
        "use_global_stats": "False"
      }, 
      "inputs": [[90, 0, 0], [91, 0, 0], [92, 0, 0], [93, 0, 1], [94, 0, 1]]
    }, 
    {
      "op": "Pooling", 
      "name": "pooling0", 
      "attr": {
        "kernel": "(1, 1)", 
        "pool_type": "max", 
        "stride": "(2, 2)"
      }, 
      "inputs": [[72, 0, 0]]
    }, 
    {
      "op": "elemwise_add", 
      "name": "_plus2", 
      "inputs": [[95, 0, 0], [96, 0, 0]]
    }, 
    {
      "op": "Activation", 
      "name": "relu_pool3", 
      "attr": {"act_type": "relu"}, 
      "inputs": [[97, 0, 0]]
    }, 
    {
      "op": "null", 
      "name": "stage2_unit1_conv1_weight", 
      "attr": {
        "kernel": "(1, 1)", 
        "no_bias": "True", 
        "num_filter": "128", 
        "pad": "(0, 0)", 
        "stride": "(1, 1)"
      }, 
      "inputs": []
    }, 
    {
      "op": "Convolution", 
      "name": "stage2_unit1_conv1", 
      "attr": {
        "kernel": "(1, 1)", 
        "no_bias": "True", 
        "num_filter": "128", 
        "pad": "(0, 0)", 
        "stride": "(1, 1)"
      }, 
      "inputs": [[98, 0, 0], [99, 0, 0]]
    }, 
    {
      "op": "null", 
      "name": "stage2_unit1_bn1_gamma", 
      "attr": {
        "eps": "1e-05", 
        "fix_gamma": "False", 
        "momentum": "0.997", 
        "use_global_stats": "False"
      }, 
      "inputs": []
    }, 
    {
      "op": "null", 
      "name": "stage2_unit1_bn1_beta", 
      "attr": {
        "eps": "1e-05", 
        "fix_gamma": "False", 
        "momentum": "0.997", 
        "use_global_stats": "False"
      }, 
      "inputs": []
    }, 
    {
      "op": "null", 
      "name": "stage2_unit1_bn1_moving_mean", 
      "attr": {
        "__init__": "[\"zero\", {}]", 
        "eps": "1e-05", 
        "fix_gamma": "False", 
        "momentum": "0.997", 
        "use_global_stats": "False"
      }, 
      "inputs": []
    }, 
    {
      "op": "null", 
      "name": "stage2_unit1_bn1_moving_var", 
      "attr": {
        "__init__": "[\"one\", {}]", 
        "eps": "1e-05", 
        "fix_gamma": "False", 
        "momentum": "0.997", 
        "use_global_stats": "False"
      }, 
      "inputs": []
    }, 
    {
      "op": "BatchNorm", 
      "name": "stage2_unit1_bn1", 
      "attr": {
        "eps": "1e-05", 
        "fix_gamma": "False", 
        "momentum": "0.997", 
        "use_global_stats": "False"
      }, 
      "inputs": [[100, 0, 0], [101, 0, 0], [102, 0, 0], [103, 0, 1], [104, 0, 1]]
    }, 
    {
      "op": "Activation", 
      "name": "stage2_unit1_relu1", 
      "attr": {"act_type": "relu"}, 
      "inputs": [[105, 0, 0]]
    }, 
    {
      "op": "null", 
      "name": "stage2_unit1_conv2_weight", 
      "attr": {
        "kernel": "(3, 3)", 
        "no_bias": "True", 
        "num_filter": "128", 
        "pad": "(1, 1)", 
        "stride": "(1, 1)"
      }, 
      "inputs": []
    }, 
    {
      "op": "Convolution", 
      "name": "stage2_unit1_conv2", 
      "attr": {
        "kernel": "(3, 3)", 
        "no_bias": "True", 
        "num_filter": "128", 
        "pad": "(1, 1)", 
        "stride": "(1, 1)"
      }, 
      "inputs": [[106, 0, 0], [107, 0, 0]]
    }, 
    {
      "op": "null", 
      "name": "stage2_unit1_bn2_gamma", 
      "attr": {
        "eps": "1e-05", 
        "fix_gamma": "False", 
        "momentum": "0.997", 
        "use_global_stats": "False"
      }, 
      "inputs": []
    }, 
    {
      "op": "null", 
      "name": "stage2_unit1_bn2_beta", 
      "attr": {
        "eps": "1e-05", 
        "fix_gamma": "False", 
        "momentum": "0.997", 
        "use_global_stats": "False"
      }, 
      "inputs": []
    }, 
    {
      "op": "null", 
      "name": "stage2_unit1_bn2_moving_mean", 
      "attr": {
        "__init__": "[\"zero\", {}]", 
        "eps": "1e-05", 
        "fix_gamma": "False", 
        "momentum": "0.997", 
        "use_global_stats": "False"
      }, 
      "inputs": []
    }, 
    {
      "op": "null", 
      "name": "stage2_unit1_bn2_moving_var", 
      "attr": {
        "__init__": "[\"one\", {}]", 
        "eps": "1e-05", 
        "fix_gamma": "False", 
        "momentum": "0.997", 
        "use_global_stats": "False"
      }, 
      "inputs": []
    }, 
    {
      "op": "BatchNorm", 
      "name": "stage2_unit1_bn2", 
      "attr": {
        "eps": "1e-05", 
        "fix_gamma": "False", 
        "momentum": "0.997", 
        "use_global_stats": "False"
      }, 
      "inputs": [[108, 0, 0], [109, 0, 0], [110, 0, 0], [111, 0, 1], [112, 0, 1]]
    }, 
    {
      "op": "Activation", 
      "name": "stage2_unit1_relu2", 
      "attr": {"act_type": "relu"}, 
      "inputs": [[113, 0, 0]]
    }, 
    {
      "op": "null", 
      "name": "stage2_unit1_conv3_weight", 
      "attr": {
        "kernel": "(1, 1)", 
        "no_bias": "True", 
        "num_filter": "512", 
        "pad": "(0, 0)", 
        "stride": "(1, 1)"
      }, 
      "inputs": []
    }, 
    {
      "op": "Convolution", 
      "name": "stage2_unit1_conv3", 
      "attr": {
        "kernel": "(1, 1)", 
        "no_bias": "True", 
        "num_filter": "512", 
        "pad": "(0, 0)", 
        "stride": "(1, 1)"
      }, 
      "inputs": [[114, 0, 0], [115, 0, 0]]
    }, 
    {
      "op": "null", 
      "name": "stage2_unit1_bn3_gamma", 
      "attr": {
        "eps": "1e-05", 
        "fix_gamma": "False", 
        "momentum": "0.997", 
        "use_global_stats": "False"
      }, 
      "inputs": []
    }, 
    {
      "op": "null", 
      "name": "stage2_unit1_bn3_beta", 
      "attr": {
        "eps": "1e-05", 
        "fix_gamma": "False", 
        "momentum": "0.997", 
        "use_global_stats": "False"
      }, 
      "inputs": []
    }, 
    {
      "op": "null", 
      "name": "stage2_unit1_bn3_moving_mean", 
      "attr": {
        "__init__": "[\"zero\", {}]", 
        "eps": "1e-05", 
        "fix_gamma": "False", 
        "momentum": "0.997", 
        "use_global_stats": "False"
      }, 
      "inputs": []
    }, 
    {
      "op": "null", 
      "name": "stage2_unit1_bn3_moving_var", 
      "attr": {
        "__init__": "[\"one\", {}]", 
        "eps": "1e-05", 
        "fix_gamma": "False", 
        "momentum": "0.997", 
        "use_global_stats": "False"
      }, 
      "inputs": []
    }, 
    {
      "op": "BatchNorm", 
      "name": "stage2_unit1_bn3", 
      "attr": {
        "eps": "1e-05", 
        "fix_gamma": "False", 
        "momentum": "0.997", 
        "use_global_stats": "False"
      }, 
      "inputs": [[116, 0, 0], [117, 0, 0], [118, 0, 0], [119, 0, 1], [120, 0, 1]]
    }, 
    {
      "op": "null", 
      "name": "stage2_unit1_sc_conv_weight", 
      "attr": {
        "kernel": "(1, 1)", 
        "no_bias": "True", 
        "num_filter": "512", 
        "pad": "(0, 0)", 
        "stride": "(1, 1)"
      }, 
      "inputs": []
    }, 
    {
      "op": "Convolution", 
      "name": "stage2_unit1_sc_conv", 
      "attr": {
        "kernel": "(1, 1)", 
        "no_bias": "True", 
        "num_filter": "512", 
        "pad": "(0, 0)", 
        "stride": "(1, 1)"
      }, 
      "inputs": [[98, 0, 0], [122, 0, 0]]
    }, 
    {
      "op": "null", 
      "name": "stage2_unit1_sc_bn_gamma", 
      "attr": {
        "eps": "1e-05", 
        "fix_gamma": "False", 
        "momentum": "0.997", 
        "use_global_stats": "False"
      }, 
      "inputs": []
    }, 
    {
      "op": "null", 
      "name": "stage2_unit1_sc_bn_beta", 
      "attr": {
        "eps": "1e-05", 
        "fix_gamma": "False", 
        "momentum": "0.997", 
        "use_global_stats": "False"
      }, 
      "inputs": []
    }, 
    {
      "op": "null", 
      "name": "stage2_unit1_sc_bn_moving_mean", 
      "attr": {
        "__init__": "[\"zero\", {}]", 
        "eps": "1e-05", 
        "fix_gamma": "False", 
        "momentum": "0.997", 
        "use_global_stats": "False"
      }, 
      "inputs": []
    }, 
    {
      "op": "null", 
      "name": "stage2_unit1_sc_bn_moving_var", 
      "attr": {
        "__init__": "[\"one\", {}]", 
        "eps": "1e-05", 
        "fix_gamma": "False", 
        "momentum": "0.997", 
        "use_global_stats": "False"
      }, 
      "inputs": []
    }, 
    {
      "op": "BatchNorm", 
      "name": "stage2_unit1_sc_bn", 
      "attr": {
        "eps": "1e-05", 
        "fix_gamma": "False", 
        "momentum": "0.997", 
        "use_global_stats": "False"
      }, 
      "inputs": [[123, 0, 0], [124, 0, 0], [125, 0, 0], [126, 0, 1], [127, 0, 1]]
    }, 
    {
      "op": "elemwise_add", 
      "name": "_plus3", 
      "inputs": [[121, 0, 0], [128, 0, 0]]
    }, 
    {
      "op": "Activation", 
      "name": "stage2_unit1_relu3", 
      "attr": {"act_type": "relu"}, 
      "inputs": [[129, 0, 0]]
    }, 
    {
      "op": "null", 
      "name": "stage2_unit2_conv1_weight", 
      "attr": {
        "kernel": "(1, 1)", 
        "no_bias": "True", 
        "num_filter": "128", 
        "pad": "(0, 0)", 
        "stride": "(1, 1)"
      }, 
      "inputs": []
    }, 
    {
      "op": "Convolution", 
      "name": "stage2_unit2_conv1", 
      "attr": {
        "kernel": "(1, 1)", 
        "no_bias": "True", 
        "num_filter": "128", 
        "pad": "(0, 0)", 
        "stride": "(1, 1)"
      }, 
      "inputs": [[130, 0, 0], [131, 0, 0]]
    }, 
    {
      "op": "null", 
      "name": "stage2_unit2_bn1_gamma", 
      "attr": {
        "eps": "1e-05", 
        "fix_gamma": "False", 
        "momentum": "0.997", 
        "use_global_stats": "False"
      }, 
      "inputs": []
    }, 
    {
      "op": "null", 
      "name": "stage2_unit2_bn1_beta", 
      "attr": {
        "eps": "1e-05", 
        "fix_gamma": "False", 
        "momentum": "0.997", 
        "use_global_stats": "False"
      }, 
      "inputs": []
    }, 
    {
      "op": "null", 
      "name": "stage2_unit2_bn1_moving_mean", 
      "attr": {
        "__init__": "[\"zero\", {}]", 
        "eps": "1e-05", 
        "fix_gamma": "False", 
        "momentum": "0.997", 
        "use_global_stats": "False"
      }, 
      "inputs": []
    }, 
    {
      "op": "null", 
      "name": "stage2_unit2_bn1_moving_var", 
      "attr": {
        "__init__": "[\"one\", {}]", 
        "eps": "1e-05", 
        "fix_gamma": "False", 
        "momentum": "0.997", 
        "use_global_stats": "False"
      }, 
      "inputs": []
    }, 
    {
      "op": "BatchNorm", 
      "name": "stage2_unit2_bn1", 
      "attr": {
        "eps": "1e-05", 
        "fix_gamma": "False", 
        "momentum": "0.997", 
        "use_global_stats": "False"
      }, 
      "inputs": [[132, 0, 0], [133, 0, 0], [134, 0, 0], [135, 0, 1], [136, 0, 1]]
    }, 
    {
      "op": "Activation", 
      "name": "stage2_unit2_relu1", 
      "attr": {"act_type": "relu"}, 
      "inputs": [[137, 0, 0]]
    }, 
    {
      "op": "null", 
      "name": "stage2_unit2_conv2_weight", 
      "attr": {
        "kernel": "(3, 3)", 
        "no_bias": "True", 
        "num_filter": "128", 
        "pad": "(1, 1)", 
        "stride": "(1, 1)"
      }, 
      "inputs": []
    }, 
    {
      "op": "Convolution", 
      "name": "stage2_unit2_conv2", 
      "attr": {
        "kernel": "(3, 3)", 
        "no_bias": "True", 
        "num_filter": "128", 
        "pad": "(1, 1)", 
        "stride": "(1, 1)"
      }, 
      "inputs": [[138, 0, 0], [139, 0, 0]]
    }, 
    {
      "op": "null", 
      "name": "stage2_unit2_bn2_gamma", 
      "attr": {
        "eps": "1e-05", 
        "fix_gamma": "False", 
        "momentum": "0.997", 
        "use_global_stats": "False"
      }, 
      "inputs": []
    }, 
    {
      "op": "null", 
      "name": "stage2_unit2_bn2_beta", 
      "attr": {
        "eps": "1e-05", 
        "fix_gamma": "False", 
        "momentum": "0.997", 
        "use_global_stats": "False"
      }, 
      "inputs": []
    }, 
    {
      "op": "null", 
      "name": "stage2_unit2_bn2_moving_mean", 
      "attr": {
        "__init__": "[\"zero\", {}]", 
        "eps": "1e-05", 
        "fix_gamma": "False", 
        "momentum": "0.997", 
        "use_global_stats": "False"
      }, 
      "inputs": []
    }, 
    {
      "op": "null", 
      "name": "stage2_unit2_bn2_moving_var", 
      "attr": {
        "__init__": "[\"one\", {}]", 
        "eps": "1e-05", 
        "fix_gamma": "False", 
        "momentum": "0.997", 
        "use_global_stats": "False"
      }, 
      "inputs": []
    }, 
    {
      "op": "BatchNorm", 
      "name": "stage2_unit2_bn2", 
      "attr": {
        "eps": "1e-05", 
        "fix_gamma": "False", 
        "momentum": "0.997", 
        "use_global_stats": "False"
      }, 
      "inputs": [[140, 0, 0], [141, 0, 0], [142, 0, 0], [143, 0, 1], [144, 0, 1]]
    }, 
    {
      "op": "Activation", 
      "name": "stage2_unit2_relu2", 
      "attr": {"act_type": "relu"}, 
      "inputs": [[145, 0, 0]]
    }, 
    {
      "op": "null", 
      "name": "stage2_unit2_conv3_weight", 
      "attr": {
        "kernel": "(1, 1)", 
        "no_bias": "True", 
        "num_filter": "512", 
        "pad": "(0, 0)", 
        "stride": "(1, 1)"
      }, 
      "inputs": []
    }, 
    {
      "op": "Convolution", 
      "name": "stage2_unit2_conv3", 
      "attr": {
        "kernel": "(1, 1)", 
        "no_bias": "True", 
        "num_filter": "512", 
        "pad": "(0, 0)", 
        "stride": "(1, 1)"
      }, 
      "inputs": [[146, 0, 0], [147, 0, 0]]
    }, 
    {
      "op": "null", 
      "name": "stage2_unit2_bn3_gamma", 
      "attr": {
        "eps": "1e-05", 
        "fix_gamma": "False", 
        "momentum": "0.997", 
        "use_global_stats": "False"
      }, 
      "inputs": []
    }, 
    {
      "op": "null", 
      "name": "stage2_unit2_bn3_beta", 
      "attr": {
        "eps": "1e-05", 
        "fix_gamma": "False", 
        "momentum": "0.997", 
        "use_global_stats": "False"
      }, 
      "inputs": []
    }, 
    {
      "op": "null", 
      "name": "stage2_unit2_bn3_moving_mean", 
      "attr": {
        "__init__": "[\"zero\", {}]", 
        "eps": "1e-05", 
        "fix_gamma": "False", 
        "momentum": "0.997", 
        "use_global_stats": "False"
      }, 
      "inputs": []
    }, 
    {
      "op": "null", 
      "name": "stage2_unit2_bn3_moving_var", 
      "attr": {
        "__init__": "[\"one\", {}]", 
        "eps": "1e-05", 
        "fix_gamma": "False", 
        "momentum": "0.997", 
        "use_global_stats": "False"
      }, 
      "inputs": []
    }, 
    {
      "op": "BatchNorm", 
      "name": "stage2_unit2_bn3", 
      "attr": {
        "eps": "1e-05", 
        "fix_gamma": "False", 
        "momentum": "0.997", 
        "use_global_stats": "False"
      }, 
      "inputs": [[148, 0, 0], [149, 0, 0], [150, 0, 0], [151, 0, 1], [152, 0, 1]]
    }, 
    {
      "op": "elemwise_add", 
      "name": "_plus4", 
      "inputs": [[153, 0, 0], [130, 0, 0]]
    }, 
    {
      "op": "Activation", 
      "name": "stage2_unit2_relu3", 
      "attr": {"act_type": "relu"}, 
      "inputs": [[154, 0, 0]]
    }, 
    {
      "op": "null", 
      "name": "stage2_unit3_conv1_weight", 
      "attr": {
        "kernel": "(1, 1)", 
        "no_bias": "True", 
        "num_filter": "128", 
        "pad": "(0, 0)", 
        "stride": "(1, 1)"
      }, 
      "inputs": []
    }, 
    {
      "op": "Convolution", 
      "name": "stage2_unit3_conv1", 
      "attr": {
        "kernel": "(1, 1)", 
        "no_bias": "True", 
        "num_filter": "128", 
        "pad": "(0, 0)", 
        "stride": "(1, 1)"
      }, 
      "inputs": [[155, 0, 0], [156, 0, 0]]
    }, 
    {
      "op": "null", 
      "name": "stage2_unit3_bn1_gamma", 
      "attr": {
        "eps": "1e-05", 
        "fix_gamma": "False", 
        "momentum": "0.997", 
        "use_global_stats": "False"
      }, 
      "inputs": []
    }, 
    {
      "op": "null", 
      "name": "stage2_unit3_bn1_beta", 
      "attr": {
        "eps": "1e-05", 
        "fix_gamma": "False", 
        "momentum": "0.997", 
        "use_global_stats": "False"
      }, 
      "inputs": []
    }, 
    {
      "op": "null", 
      "name": "stage2_unit3_bn1_moving_mean", 
      "attr": {
        "__init__": "[\"zero\", {}]", 
        "eps": "1e-05", 
        "fix_gamma": "False", 
        "momentum": "0.997", 
        "use_global_stats": "False"
      }, 
      "inputs": []
    }, 
    {
      "op": "null", 
      "name": "stage2_unit3_bn1_moving_var", 
      "attr": {
        "__init__": "[\"one\", {}]", 
        "eps": "1e-05", 
        "fix_gamma": "False", 
        "momentum": "0.997", 
        "use_global_stats": "False"
      }, 
      "inputs": []
    }, 
    {
      "op": "BatchNorm", 
      "name": "stage2_unit3_bn1", 
      "attr": {
        "eps": "1e-05", 
        "fix_gamma": "False", 
        "momentum": "0.997", 
        "use_global_stats": "False"
      }, 
      "inputs": [[157, 0, 0], [158, 0, 0], [159, 0, 0], [160, 0, 1], [161, 0, 1]]
    }, 
    {
      "op": "Activation", 
      "name": "stage2_unit3_relu1", 
      "attr": {"act_type": "relu"}, 
      "inputs": [[162, 0, 0]]
    }, 
    {
      "op": "null", 
      "name": "stage2_unit3_conv2_weight", 
      "attr": {
        "kernel": "(3, 3)", 
        "no_bias": "True", 
        "num_filter": "128", 
        "pad": "(1, 1)", 
        "stride": "(1, 1)"
      }, 
      "inputs": []
    }, 
    {
      "op": "Convolution", 
      "name": "stage2_unit3_conv2", 
      "attr": {
        "kernel": "(3, 3)", 
        "no_bias": "True", 
        "num_filter": "128", 
        "pad": "(1, 1)", 
        "stride": "(1, 1)"
      }, 
      "inputs": [[163, 0, 0], [164, 0, 0]]
    }, 
    {
      "op": "null", 
      "name": "stage2_unit3_bn2_gamma", 
      "attr": {
        "eps": "1e-05", 
        "fix_gamma": "False", 
        "momentum": "0.997", 
        "use_global_stats": "False"
      }, 
      "inputs": []
    }, 
    {
      "op": "null", 
      "name": "stage2_unit3_bn2_beta", 
      "attr": {
        "eps": "1e-05", 
        "fix_gamma": "False", 
        "momentum": "0.997", 
        "use_global_stats": "False"
      }, 
      "inputs": []
    }, 
    {
      "op": "null", 
      "name": "stage2_unit3_bn2_moving_mean", 
      "attr": {
        "__init__": "[\"zero\", {}]", 
        "eps": "1e-05", 
        "fix_gamma": "False", 
        "momentum": "0.997", 
        "use_global_stats": "False"
      }, 
      "inputs": []
    }, 
    {
      "op": "null", 
      "name": "stage2_unit3_bn2_moving_var", 
      "attr": {
        "__init__": "[\"one\", {}]", 
        "eps": "1e-05", 
        "fix_gamma": "False", 
        "momentum": "0.997", 
        "use_global_stats": "False"
      }, 
      "inputs": []
    }, 
    {
      "op": "BatchNorm", 
      "name": "stage2_unit3_bn2", 
      "attr": {
        "eps": "1e-05", 
        "fix_gamma": "False", 
        "momentum": "0.997", 
        "use_global_stats": "False"
      }, 
      "inputs": [[165, 0, 0], [166, 0, 0], [167, 0, 0], [168, 0, 1], [169, 0, 1]]
    }, 
    {
      "op": "Activation", 
      "name": "stage2_unit3_relu2", 
      "attr": {"act_type": "relu"}, 
      "inputs": [[170, 0, 0]]
    }, 
    {
      "op": "null", 
      "name": "stage2_unit3_conv3_weight", 
      "attr": {
        "kernel": "(1, 1)", 
        "no_bias": "True", 
        "num_filter": "512", 
        "pad": "(0, 0)", 
        "stride": "(1, 1)"
      }, 
      "inputs": []
    }, 
    {
      "op": "Convolution", 
      "name": "stage2_unit3_conv3", 
      "attr": {
        "kernel": "(1, 1)", 
        "no_bias": "True", 
        "num_filter": "512", 
        "pad": "(0, 0)", 
        "stride": "(1, 1)"
      }, 
      "inputs": [[171, 0, 0], [172, 0, 0]]
    }, 
    {
      "op": "null", 
      "name": "stage2_unit3_bn3_gamma", 
      "attr": {
        "eps": "1e-05", 
        "fix_gamma": "False", 
        "momentum": "0.997", 
        "use_global_stats": "False"
      }, 
      "inputs": []
    }, 
    {
      "op": "null", 
      "name": "stage2_unit3_bn3_beta", 
      "attr": {
        "eps": "1e-05", 
        "fix_gamma": "False", 
        "momentum": "0.997", 
        "use_global_stats": "False"
      }, 
      "inputs": []
    }, 
    {
      "op": "null", 
      "name": "stage2_unit3_bn3_moving_mean", 
      "attr": {
        "__init__": "[\"zero\", {}]", 
        "eps": "1e-05", 
        "fix_gamma": "False", 
        "momentum": "0.997", 
        "use_global_stats": "False"
      }, 
      "inputs": []
    }, 
    {
      "op": "null", 
      "name": "stage2_unit3_bn3_moving_var", 
      "attr": {
        "__init__": "[\"one\", {}]", 
        "eps": "1e-05", 
        "fix_gamma": "False", 
        "momentum": "0.997", 
        "use_global_stats": "False"
      }, 
      "inputs": []
    }, 
    {
      "op": "BatchNorm", 
      "name": "stage2_unit3_bn3", 
      "attr": {
        "eps": "1e-05", 
        "fix_gamma": "False", 
        "momentum": "0.997", 
        "use_global_stats": "False"
      }, 
      "inputs": [[173, 0, 0], [174, 0, 0], [175, 0, 0], [176, 0, 1], [177, 0, 1]]
    }, 
    {
      "op": "elemwise_add", 
      "name": "_plus5", 
      "inputs": [[178, 0, 0], [155, 0, 0]]
    }, 
    {
      "op": "Activation", 
      "name": "stage2_unit3_relu3", 
      "attr": {"act_type": "relu"}, 
      "inputs": [[179, 0, 0]]
    }, 
    {
      "op": "null", 
      "name": "stage2_unit4_conv1_weight", 
      "attr": {
        "kernel": "(1, 1)", 
        "no_bias": "True", 
        "num_filter": "128", 
        "pad": "(0, 0)", 
        "stride": "(1, 1)"
      }, 
      "inputs": []
    }, 
    {
      "op": "Convolution", 
      "name": "stage2_unit4_conv1", 
      "attr": {
        "kernel": "(1, 1)", 
        "no_bias": "True", 
        "num_filter": "128", 
        "pad": "(0, 0)", 
        "stride": "(1, 1)"
      }, 
      "inputs": [[180, 0, 0], [181, 0, 0]]
    }, 
    {
      "op": "null", 
      "name": "stage2_unit4_bn1_gamma", 
      "attr": {
        "eps": "1e-05", 
        "fix_gamma": "False", 
        "momentum": "0.997", 
        "use_global_stats": "False"
      }, 
      "inputs": []
    }, 
    {
      "op": "null", 
      "name": "stage2_unit4_bn1_beta", 
      "attr": {
        "eps": "1e-05", 
        "fix_gamma": "False", 
        "momentum": "0.997", 
        "use_global_stats": "False"
      }, 
      "inputs": []
    }, 
    {
      "op": "null", 
      "name": "stage2_unit4_bn1_moving_mean", 
      "attr": {
        "__init__": "[\"zero\", {}]", 
        "eps": "1e-05", 
        "fix_gamma": "False", 
        "momentum": "0.997", 
        "use_global_stats": "False"
      }, 
      "inputs": []
    }, 
    {
      "op": "null", 
      "name": "stage2_unit4_bn1_moving_var", 
      "attr": {
        "__init__": "[\"one\", {}]", 
        "eps": "1e-05", 
        "fix_gamma": "False", 
        "momentum": "0.997", 
        "use_global_stats": "False"
      }, 
      "inputs": []
    }, 
    {
      "op": "BatchNorm", 
      "name": "stage2_unit4_bn1", 
      "attr": {
        "eps": "1e-05", 
        "fix_gamma": "False", 
        "momentum": "0.997", 
        "use_global_stats": "False"
      }, 
      "inputs": [[182, 0, 0], [183, 0, 0], [184, 0, 0], [185, 0, 1], [186, 0, 1]]
    }, 
    {
      "op": "Activation", 
      "name": "stage2_unit4_relu1", 
      "attr": {"act_type": "relu"}, 
      "inputs": [[187, 0, 0]]
    }, 
    {
      "op": "null", 
      "name": "stage2_unit4_conv2_weight", 
      "attr": {
        "kernel": "(3, 3)", 
        "no_bias": "True", 
        "num_filter": "128", 
        "pad": "(1, 1)", 
        "stride": "(2, 2)"
      }, 
      "inputs": []
    }, 
    {
      "op": "Convolution", 
      "name": "stage2_unit4_conv2", 
      "attr": {
        "kernel": "(3, 3)", 
        "no_bias": "True", 
        "num_filter": "128", 
        "pad": "(1, 1)", 
        "stride": "(2, 2)"
      }, 
      "inputs": [[188, 0, 0], [189, 0, 0]]
    }, 
    {
      "op": "null", 
      "name": "stage2_unit4_bn2_gamma", 
      "attr": {
        "eps": "1e-05", 
        "fix_gamma": "False", 
        "momentum": "0.997", 
        "use_global_stats": "False"
      }, 
      "inputs": []
    }, 
    {
      "op": "null", 
      "name": "stage2_unit4_bn2_beta", 
      "attr": {
        "eps": "1e-05", 
        "fix_gamma": "False", 
        "momentum": "0.997", 
        "use_global_stats": "False"
      }, 
      "inputs": []
    }, 
    {
      "op": "null", 
      "name": "stage2_unit4_bn2_moving_mean", 
      "attr": {
        "__init__": "[\"zero\", {}]", 
        "eps": "1e-05", 
        "fix_gamma": "False", 
        "momentum": "0.997", 
        "use_global_stats": "False"
      }, 
      "inputs": []
    }, 
    {
      "op": "null", 
      "name": "stage2_unit4_bn2_moving_var", 
      "attr": {
        "__init__": "[\"one\", {}]", 
        "eps": "1e-05", 
        "fix_gamma": "False", 
        "momentum": "0.997", 
        "use_global_stats": "False"
      }, 
      "inputs": []
    }, 
    {
      "op": "BatchNorm", 
      "name": "stage2_unit4_bn2", 
      "attr": {
        "eps": "1e-05", 
        "fix_gamma": "False", 
        "momentum": "0.997", 
        "use_global_stats": "False"
      }, 
      "inputs": [[190, 0, 0], [191, 0, 0], [192, 0, 0], [193, 0, 1], [194, 0, 1]]
    }, 
    {
      "op": "Activation", 
      "name": "stage2_unit4_relu2", 
      "attr": {"act_type": "relu"}, 
      "inputs": [[195, 0, 0]]
    }, 
    {
      "op": "null", 
      "name": "stage2_unit4_conv3_weight", 
      "attr": {
        "kernel": "(1, 1)", 
        "no_bias": "True", 
        "num_filter": "512", 
        "pad": "(0, 0)", 
        "stride": "(1, 1)"
      }, 
      "inputs": []
    }, 
    {
      "op": "Convolution", 
      "name": "stage2_unit4_conv3", 
      "attr": {
        "kernel": "(1, 1)", 
        "no_bias": "True", 
        "num_filter": "512", 
        "pad": "(0, 0)", 
        "stride": "(1, 1)"
      }, 
      "inputs": [[196, 0, 0], [197, 0, 0]]
    }, 
    {
      "op": "null", 
      "name": "stage2_unit4_bn3_gamma", 
      "attr": {
        "eps": "1e-05", 
        "fix_gamma": "False", 
        "momentum": "0.997", 
        "use_global_stats": "False"
      }, 
      "inputs": []
    }, 
    {
      "op": "null", 
      "name": "stage2_unit4_bn3_beta", 
      "attr": {
        "eps": "1e-05", 
        "fix_gamma": "False", 
        "momentum": "0.997", 
        "use_global_stats": "False"
      }, 
      "inputs": []
    }, 
    {
      "op": "null", 
      "name": "stage2_unit4_bn3_moving_mean", 
      "attr": {
        "__init__": "[\"zero\", {}]", 
        "eps": "1e-05", 
        "fix_gamma": "False", 
        "momentum": "0.997", 
        "use_global_stats": "False"
      }, 
      "inputs": []
    }, 
    {
      "op": "null", 
      "name": "stage2_unit4_bn3_moving_var", 
      "attr": {
        "__init__": "[\"one\", {}]", 
        "eps": "1e-05", 
        "fix_gamma": "False", 
        "momentum": "0.997", 
        "use_global_stats": "False"
      }, 
      "inputs": []
    }, 
    {
      "op": "BatchNorm", 
      "name": "stage2_unit4_bn3", 
      "attr": {
        "eps": "1e-05", 
        "fix_gamma": "False", 
        "momentum": "0.997", 
        "use_global_stats": "False"
      }, 
      "inputs": [[198, 0, 0], [199, 0, 0], [200, 0, 0], [201, 0, 1], [202, 0, 1]]
    }, 
    {
      "op": "Pooling", 
      "name": "pooling1", 
      "attr": {
        "kernel": "(1, 1)", 
        "pool_type": "max", 
        "stride": "(2, 2)"
      }, 
      "inputs": [[180, 0, 0]]
    }, 
    {
      "op": "elemwise_add", 
      "name": "_plus6", 
      "inputs": [[203, 0, 0], [204, 0, 0]]
    }, 
    {
      "op": "Activation", 
      "name": "relu_pool4", 
      "attr": {"act_type": "relu"}, 
      "inputs": [[205, 0, 0]]
    }, 
    {
      "op": "null", 
      "name": "stage3_unit1_conv1_weight", 
      "attr": {
        "kernel": "(1, 1)", 
        "no_bias": "True", 
        "num_filter": "256", 
        "pad": "(0, 0)", 
        "stride": "(1, 1)"
      }, 
      "inputs": []
    }, 
    {
      "op": "Convolution", 
      "name": "stage3_unit1_conv1", 
      "attr": {
        "kernel": "(1, 1)", 
        "no_bias": "True", 
        "num_filter": "256", 
        "pad": "(0, 0)", 
        "stride": "(1, 1)"
      }, 
      "inputs": [[206, 0, 0], [207, 0, 0]]
    }, 
    {
      "op": "null", 
      "name": "stage3_unit1_bn1_gamma", 
      "attr": {
        "eps": "1e-05", 
        "fix_gamma": "False", 
        "momentum": "0.997", 
        "use_global_stats": "False"
      }, 
      "inputs": []
    }, 
    {
      "op": "null", 
      "name": "stage3_unit1_bn1_beta", 
      "attr": {
        "eps": "1e-05", 
        "fix_gamma": "False", 
        "momentum": "0.997", 
        "use_global_stats": "False"
      }, 
      "inputs": []
    }, 
    {
      "op": "null", 
      "name": "stage3_unit1_bn1_moving_mean", 
      "attr": {
        "__init__": "[\"zero\", {}]", 
        "eps": "1e-05", 
        "fix_gamma": "False", 
        "momentum": "0.997", 
        "use_global_stats": "False"
      }, 
      "inputs": []
    }, 
    {
      "op": "null", 
      "name": "stage3_unit1_bn1_moving_var", 
      "attr": {
        "__init__": "[\"one\", {}]", 
        "eps": "1e-05", 
        "fix_gamma": "False", 
        "momentum": "0.997", 
        "use_global_stats": "False"
      }, 
      "inputs": []
    }, 
    {
      "op": "BatchNorm", 
      "name": "stage3_unit1_bn1", 
      "attr": {
        "eps": "1e-05", 
        "fix_gamma": "False", 
        "momentum": "0.997", 
        "use_global_stats": "False"
      }, 
      "inputs": [[208, 0, 0], [209, 0, 0], [210, 0, 0], [211, 0, 1], [212, 0, 1]]
    }, 
    {
      "op": "Activation", 
      "name": "stage3_unit1_relu1", 
      "attr": {"act_type": "relu"}, 
      "inputs": [[213, 0, 0]]
    }, 
    {
      "op": "null", 
      "name": "stage3_unit1_conv2_weight", 
      "attr": {
        "kernel": "(3, 3)", 
        "no_bias": "True", 
        "num_filter": "256", 
        "pad": "(1, 1)", 
        "stride": "(1, 1)"
      }, 
      "inputs": []
    }, 
    {
      "op": "Convolution", 
      "name": "stage3_unit1_conv2", 
      "attr": {
        "kernel": "(3, 3)", 
        "no_bias": "True", 
        "num_filter": "256", 
        "pad": "(1, 1)", 
        "stride": "(1, 1)"
      }, 
      "inputs": [[214, 0, 0], [215, 0, 0]]
    }, 
    {
      "op": "null", 
      "name": "stage3_unit1_bn2_gamma", 
      "attr": {
        "eps": "1e-05", 
        "fix_gamma": "False", 
        "momentum": "0.997", 
        "use_global_stats": "False"
      }, 
      "inputs": []
    }, 
    {
      "op": "null", 
      "name": "stage3_unit1_bn2_beta", 
      "attr": {
        "eps": "1e-05", 
        "fix_gamma": "False", 
        "momentum": "0.997", 
        "use_global_stats": "False"
      }, 
      "inputs": []
    }, 
    {
      "op": "null", 
      "name": "stage3_unit1_bn2_moving_mean", 
      "attr": {
        "__init__": "[\"zero\", {}]", 
        "eps": "1e-05", 
        "fix_gamma": "False", 
        "momentum": "0.997", 
        "use_global_stats": "False"
      }, 
      "inputs": []
    }, 
    {
      "op": "null", 
      "name": "stage3_unit1_bn2_moving_var", 
      "attr": {
        "__init__": "[\"one\", {}]", 
        "eps": "1e-05", 
        "fix_gamma": "False", 
        "momentum": "0.997", 
        "use_global_stats": "False"
      }, 
      "inputs": []
    }, 
    {
      "op": "BatchNorm", 
      "name": "stage3_unit1_bn2", 
      "attr": {
        "eps": "1e-05", 
        "fix_gamma": "False", 
        "momentum": "0.997", 
        "use_global_stats": "False"
      }, 
      "inputs": [[216, 0, 0], [217, 0, 0], [218, 0, 0], [219, 0, 1], [220, 0, 1]]
    }, 
    {
      "op": "Activation", 
      "name": "stage3_unit1_relu2", 
      "attr": {"act_type": "relu"}, 
      "inputs": [[221, 0, 0]]
    }, 
    {
      "op": "null", 
      "name": "stage3_unit1_conv3_weight", 
      "attr": {
        "kernel": "(1, 1)", 
        "no_bias": "True", 
        "num_filter": "1024", 
        "pad": "(0, 0)", 
        "stride": "(1, 1)"
      }, 
      "inputs": []
    }, 
    {
      "op": "Convolution", 
      "name": "stage3_unit1_conv3", 
      "attr": {
        "kernel": "(1, 1)", 
        "no_bias": "True", 
        "num_filter": "1024", 
        "pad": "(0, 0)", 
        "stride": "(1, 1)"
      }, 
      "inputs": [[222, 0, 0], [223, 0, 0]]
    }, 
    {
      "op": "null", 
      "name": "stage3_unit1_bn3_gamma", 
      "attr": {
        "eps": "1e-05", 
        "fix_gamma": "False", 
        "momentum": "0.997", 
        "use_global_stats": "False"
      }, 
      "inputs": []
    }, 
    {
      "op": "null", 
      "name": "stage3_unit1_bn3_beta", 
      "attr": {
        "eps": "1e-05", 
        "fix_gamma": "False", 
        "momentum": "0.997", 
        "use_global_stats": "False"
      }, 
      "inputs": []
    }, 
    {
      "op": "null", 
      "name": "stage3_unit1_bn3_moving_mean", 
      "attr": {
        "__init__": "[\"zero\", {}]", 
        "eps": "1e-05", 
        "fix_gamma": "False", 
        "momentum": "0.997", 
        "use_global_stats": "False"
      }, 
      "inputs": []
    }, 
    {
      "op": "null", 
      "name": "stage3_unit1_bn3_moving_var", 
      "attr": {
        "__init__": "[\"one\", {}]", 
        "eps": "1e-05", 
        "fix_gamma": "False", 
        "momentum": "0.997", 
        "use_global_stats": "False"
      }, 
      "inputs": []
    }, 
    {
      "op": "BatchNorm", 
      "name": "stage3_unit1_bn3", 
      "attr": {
        "eps": "1e-05", 
        "fix_gamma": "False", 
        "momentum": "0.997", 
        "use_global_stats": "False"
      }, 
      "inputs": [[224, 0, 0], [225, 0, 0], [226, 0, 0], [227, 0, 1], [228, 0, 1]]
    }, 
    {
      "op": "null", 
      "name": "stage3_unit1_sc_conv_weight", 
      "attr": {
        "kernel": "(1, 1)", 
        "no_bias": "True", 
        "num_filter": "1024", 
        "pad": "(0, 0)", 
        "stride": "(1, 1)"
      }, 
      "inputs": []
    }, 
    {
      "op": "Convolution", 
      "name": "stage3_unit1_sc_conv", 
      "attr": {
        "kernel": "(1, 1)", 
        "no_bias": "True", 
        "num_filter": "1024", 
        "pad": "(0, 0)", 
        "stride": "(1, 1)"
      }, 
      "inputs": [[206, 0, 0], [230, 0, 0]]
    }, 
    {
      "op": "null", 
      "name": "stage3_unit1_sc_bn_gamma", 
      "attr": {
        "eps": "1e-05", 
        "fix_gamma": "False", 
        "momentum": "0.997", 
        "use_global_stats": "False"
      }, 
      "inputs": []
    }, 
    {
      "op": "null", 
      "name": "stage3_unit1_sc_bn_beta", 
      "attr": {
        "eps": "1e-05", 
        "fix_gamma": "False", 
        "momentum": "0.997", 
        "use_global_stats": "False"
      }, 
      "inputs": []
    }, 
    {
      "op": "null", 
      "name": "stage3_unit1_sc_bn_moving_mean", 
      "attr": {
        "__init__": "[\"zero\", {}]", 
        "eps": "1e-05", 
        "fix_gamma": "False", 
        "momentum": "0.997", 
        "use_global_stats": "False"
      }, 
      "inputs": []
    }, 
    {
      "op": "null", 
      "name": "stage3_unit1_sc_bn_moving_var", 
      "attr": {
        "__init__": "[\"one\", {}]", 
        "eps": "1e-05", 
        "fix_gamma": "False", 
        "momentum": "0.997", 
        "use_global_stats": "False"
      }, 
      "inputs": []
    }, 
    {
      "op": "BatchNorm", 
      "name": "stage3_unit1_sc_bn", 
      "attr": {
        "eps": "1e-05", 
        "fix_gamma": "False", 
        "momentum": "0.997", 
        "use_global_stats": "False"
      }, 
      "inputs": [[231, 0, 0], [232, 0, 0], [233, 0, 0], [234, 0, 1], [235, 0, 1]]
    }, 
    {
      "op": "elemwise_add", 
      "name": "_plus7", 
      "inputs": [[229, 0, 0], [236, 0, 0]]
    }, 
    {
      "op": "Activation", 
      "name": "stage3_unit1_relu3", 
      "attr": {"act_type": "relu"}, 
      "inputs": [[237, 0, 0]]
    }, 
    {
      "op": "null", 
      "name": "stage3_unit2_conv1_weight", 
      "attr": {
        "kernel": "(1, 1)", 
        "no_bias": "True", 
        "num_filter": "256", 
        "pad": "(0, 0)", 
        "stride": "(1, 1)"
      }, 
      "inputs": []
    }, 
    {
      "op": "Convolution", 
      "name": "stage3_unit2_conv1", 
      "attr": {
        "kernel": "(1, 1)", 
        "no_bias": "True", 
        "num_filter": "256", 
        "pad": "(0, 0)", 
        "stride": "(1, 1)"
      }, 
      "inputs": [[238, 0, 0], [239, 0, 0]]
    }, 
    {
      "op": "null", 
      "name": "stage3_unit2_bn1_gamma", 
      "attr": {
        "eps": "1e-05", 
        "fix_gamma": "False", 
        "momentum": "0.997", 
        "use_global_stats": "False"
      }, 
      "inputs": []
    }, 
    {
      "op": "null", 
      "name": "stage3_unit2_bn1_beta", 
      "attr": {
        "eps": "1e-05", 
        "fix_gamma": "False", 
        "momentum": "0.997", 
        "use_global_stats": "False"
      }, 
      "inputs": []
    }, 
    {
      "op": "null", 
      "name": "stage3_unit2_bn1_moving_mean", 
      "attr": {
        "__init__": "[\"zero\", {}]", 
        "eps": "1e-05", 
        "fix_gamma": "False", 
        "momentum": "0.997", 
        "use_global_stats": "False"
      }, 
      "inputs": []
    }, 
    {
      "op": "null", 
      "name": "stage3_unit2_bn1_moving_var", 
      "attr": {
        "__init__": "[\"one\", {}]", 
        "eps": "1e-05", 
        "fix_gamma": "False", 
        "momentum": "0.997", 
        "use_global_stats": "False"
      }, 
      "inputs": []
    }, 
    {
      "op": "BatchNorm", 
      "name": "stage3_unit2_bn1", 
      "attr": {
        "eps": "1e-05", 
        "fix_gamma": "False", 
        "momentum": "0.997", 
        "use_global_stats": "False"
      }, 
      "inputs": [[240, 0, 0], [241, 0, 0], [242, 0, 0], [243, 0, 1], [244, 0, 1]]
    }, 
    {
      "op": "Activation", 
      "name": "stage3_unit2_relu1", 
      "attr": {"act_type": "relu"}, 
      "inputs": [[245, 0, 0]]
    }, 
    {
      "op": "null", 
      "name": "stage3_unit2_conv2_weight", 
      "attr": {
        "kernel": "(3, 3)", 
        "no_bias": "True", 
        "num_filter": "256", 
        "pad": "(1, 1)", 
        "stride": "(1, 1)"
      }, 
      "inputs": []
    }, 
    {
      "op": "Convolution", 
      "name": "stage3_unit2_conv2", 
      "attr": {
        "kernel": "(3, 3)", 
        "no_bias": "True", 
        "num_filter": "256", 
        "pad": "(1, 1)", 
        "stride": "(1, 1)"
      }, 
      "inputs": [[246, 0, 0], [247, 0, 0]]
    }, 
    {
      "op": "null", 
      "name": "stage3_unit2_bn2_gamma", 
      "attr": {
        "eps": "1e-05", 
        "fix_gamma": "False", 
        "momentum": "0.997", 
        "use_global_stats": "False"
      }, 
      "inputs": []
    }, 
    {
      "op": "null", 
      "name": "stage3_unit2_bn2_beta", 
      "attr": {
        "eps": "1e-05", 
        "fix_gamma": "False", 
        "momentum": "0.997", 
        "use_global_stats": "False"
      }, 
      "inputs": []
    }, 
    {
      "op": "null", 
      "name": "stage3_unit2_bn2_moving_mean", 
      "attr": {
        "__init__": "[\"zero\", {}]", 
        "eps": "1e-05", 
        "fix_gamma": "False", 
        "momentum": "0.997", 
        "use_global_stats": "False"
      }, 
      "inputs": []
    }, 
    {
      "op": "null", 
      "name": "stage3_unit2_bn2_moving_var", 
      "attr": {
        "__init__": "[\"one\", {}]", 
        "eps": "1e-05", 
        "fix_gamma": "False", 
        "momentum": "0.997", 
        "use_global_stats": "False"
      }, 
      "inputs": []
    }, 
    {
      "op": "BatchNorm", 
      "name": "stage3_unit2_bn2", 
      "attr": {
        "eps": "1e-05", 
        "fix_gamma": "False", 
        "momentum": "0.997", 
        "use_global_stats": "False"
      }, 
      "inputs": [[248, 0, 0], [249, 0, 0], [250, 0, 0], [251, 0, 1], [252, 0, 1]]
    }, 
    {
      "op": "Activation", 
      "name": "stage3_unit2_relu2", 
      "attr": {"act_type": "relu"}, 
      "inputs": [[253, 0, 0]]
    }, 
    {
      "op": "null", 
      "name": "stage3_unit2_conv3_weight", 
      "attr": {
        "kernel": "(1, 1)", 
        "no_bias": "True", 
        "num_filter": "1024", 
        "pad": "(0, 0)", 
        "stride": "(1, 1)"
      }, 
      "inputs": []
    }, 
    {
      "op": "Convolution", 
      "name": "stage3_unit2_conv3", 
      "attr": {
        "kernel": "(1, 1)", 
        "no_bias": "True", 
        "num_filter": "1024", 
        "pad": "(0, 0)", 
        "stride": "(1, 1)"
      }, 
      "inputs": [[254, 0, 0], [255, 0, 0]]
    }, 
    {
      "op": "null", 
      "name": "stage3_unit2_bn3_gamma", 
      "attr": {
        "eps": "1e-05", 
        "fix_gamma": "False", 
        "momentum": "0.997", 
        "use_global_stats": "False"
      }, 
      "inputs": []
    }, 
    {
      "op": "null", 
      "name": "stage3_unit2_bn3_beta", 
      "attr": {
        "eps": "1e-05", 
        "fix_gamma": "False", 
        "momentum": "0.997", 
        "use_global_stats": "False"
      }, 
      "inputs": []
    }, 
    {
      "op": "null", 
      "name": "stage3_unit2_bn3_moving_mean", 
      "attr": {
        "__init__": "[\"zero\", {}]", 
        "eps": "1e-05", 
        "fix_gamma": "False", 
        "momentum": "0.997", 
        "use_global_stats": "False"
      }, 
      "inputs": []
    }, 
    {
      "op": "null", 
      "name": "stage3_unit2_bn3_moving_var", 
      "attr": {
        "__init__": "[\"one\", {}]", 
        "eps": "1e-05", 
        "fix_gamma": "False", 
        "momentum": "0.997", 
        "use_global_stats": "False"
      }, 
      "inputs": []
    }, 
    {
      "op": "BatchNorm", 
      "name": "stage3_unit2_bn3", 
      "attr": {
        "eps": "1e-05", 
        "fix_gamma": "False", 
        "momentum": "0.997", 
        "use_global_stats": "False"
      }, 
      "inputs": [[256, 0, 0], [257, 0, 0], [258, 0, 0], [259, 0, 1], [260, 0, 1]]
    }, 
    {
      "op": "elemwise_add", 
      "name": "_plus8", 
      "inputs": [[261, 0, 0], [238, 0, 0]]
    }, 
    {
      "op": "Activation", 
      "name": "stage3_unit2_relu3", 
      "attr": {"act_type": "relu"}, 
      "inputs": [[262, 0, 0]]
    }, 
    {
      "op": "null", 
      "name": "stage3_unit3_conv1_weight", 
      "attr": {
        "kernel": "(1, 1)", 
        "no_bias": "True", 
        "num_filter": "256", 
        "pad": "(0, 0)", 
        "stride": "(1, 1)"
      }, 
      "inputs": []
    }, 
    {
      "op": "Convolution", 
      "name": "stage3_unit3_conv1", 
      "attr": {
        "kernel": "(1, 1)", 
        "no_bias": "True", 
        "num_filter": "256", 
        "pad": "(0, 0)", 
        "stride": "(1, 1)"
      }, 
      "inputs": [[263, 0, 0], [264, 0, 0]]
    }, 
    {
      "op": "null", 
      "name": "stage3_unit3_bn1_gamma", 
      "attr": {
        "eps": "1e-05", 
        "fix_gamma": "False", 
        "momentum": "0.997", 
        "use_global_stats": "False"
      }, 
      "inputs": []
    }, 
    {
      "op": "null", 
      "name": "stage3_unit3_bn1_beta", 
      "attr": {
        "eps": "1e-05", 
        "fix_gamma": "False", 
        "momentum": "0.997", 
        "use_global_stats": "False"
      }, 
      "inputs": []
    }, 
    {
      "op": "null", 
      "name": "stage3_unit3_bn1_moving_mean", 
      "attr": {
        "__init__": "[\"zero\", {}]", 
        "eps": "1e-05", 
        "fix_gamma": "False", 
        "momentum": "0.997", 
        "use_global_stats": "False"
      }, 
      "inputs": []
    }, 
    {
      "op": "null", 
      "name": "stage3_unit3_bn1_moving_var", 
      "attr": {
        "__init__": "[\"one\", {}]", 
        "eps": "1e-05", 
        "fix_gamma": "False", 
        "momentum": "0.997", 
        "use_global_stats": "False"
      }, 
      "inputs": []
    }, 
    {
      "op": "BatchNorm", 
      "name": "stage3_unit3_bn1", 
      "attr": {
        "eps": "1e-05", 
        "fix_gamma": "False", 
        "momentum": "0.997", 
        "use_global_stats": "False"
      }, 
      "inputs": [[265, 0, 0], [266, 0, 0], [267, 0, 0], [268, 0, 1], [269, 0, 1]]
    }, 
    {
      "op": "Activation", 
      "name": "stage3_unit3_relu1", 
      "attr": {"act_type": "relu"}, 
      "inputs": [[270, 0, 0]]
    }, 
    {
      "op": "null", 
      "name": "stage3_unit3_conv2_weight", 
      "attr": {
        "kernel": "(3, 3)", 
        "no_bias": "True", 
        "num_filter": "256", 
        "pad": "(1, 1)", 
        "stride": "(1, 1)"
      }, 
      "inputs": []
    }, 
    {
      "op": "Convolution", 
      "name": "stage3_unit3_conv2", 
      "attr": {
        "kernel": "(3, 3)", 
        "no_bias": "True", 
        "num_filter": "256", 
        "pad": "(1, 1)", 
        "stride": "(1, 1)"
      }, 
      "inputs": [[271, 0, 0], [272, 0, 0]]
    }, 
    {
      "op": "null", 
      "name": "stage3_unit3_bn2_gamma", 
      "attr": {
        "eps": "1e-05", 
        "fix_gamma": "False", 
        "momentum": "0.997", 
        "use_global_stats": "False"
      }, 
      "inputs": []
    }, 
    {
      "op": "null", 
      "name": "stage3_unit3_bn2_beta", 
      "attr": {
        "eps": "1e-05", 
        "fix_gamma": "False", 
        "momentum": "0.997", 
        "use_global_stats": "False"
      }, 
      "inputs": []
    }, 
    {
      "op": "null", 
      "name": "stage3_unit3_bn2_moving_mean", 
      "attr": {
        "__init__": "[\"zero\", {}]", 
        "eps": "1e-05", 
        "fix_gamma": "False", 
        "momentum": "0.997", 
        "use_global_stats": "False"
      }, 
      "inputs": []
    }, 
    {
      "op": "null", 
      "name": "stage3_unit3_bn2_moving_var", 
      "attr": {
        "__init__": "[\"one\", {}]", 
        "eps": "1e-05", 
        "fix_gamma": "False", 
        "momentum": "0.997", 
        "use_global_stats": "False"
      }, 
      "inputs": []
    }, 
    {
      "op": "BatchNorm", 
      "name": "stage3_unit3_bn2", 
      "attr": {
        "eps": "1e-05", 
        "fix_gamma": "False", 
        "momentum": "0.997", 
        "use_global_stats": "False"
      }, 
      "inputs": [[273, 0, 0], [274, 0, 0], [275, 0, 0], [276, 0, 1], [277, 0, 1]]
    }, 
    {
      "op": "Activation", 
      "name": "stage3_unit3_relu2", 
      "attr": {"act_type": "relu"}, 
      "inputs": [[278, 0, 0]]
    }, 
    {
      "op": "null", 
      "name": "stage3_unit3_conv3_weight", 
      "attr": {
        "kernel": "(1, 1)", 
        "no_bias": "True", 
        "num_filter": "1024", 
        "pad": "(0, 0)", 
        "stride": "(1, 1)"
      }, 
      "inputs": []
    }, 
    {
      "op": "Convolution", 
      "name": "stage3_unit3_conv3", 
      "attr": {
        "kernel": "(1, 1)", 
        "no_bias": "True", 
        "num_filter": "1024", 
        "pad": "(0, 0)", 
        "stride": "(1, 1)"
      }, 
      "inputs": [[279, 0, 0], [280, 0, 0]]
    }, 
    {
      "op": "null", 
      "name": "stage3_unit3_bn3_gamma", 
      "attr": {
        "eps": "1e-05", 
        "fix_gamma": "False", 
        "momentum": "0.997", 
        "use_global_stats": "False"
      }, 
      "inputs": []
    }, 
    {
      "op": "null", 
      "name": "stage3_unit3_bn3_beta", 
      "attr": {
        "eps": "1e-05", 
        "fix_gamma": "False", 
        "momentum": "0.997", 
        "use_global_stats": "False"
      }, 
      "inputs": []
    }, 
    {
      "op": "null", 
      "name": "stage3_unit3_bn3_moving_mean", 
      "attr": {
        "__init__": "[\"zero\", {}]", 
        "eps": "1e-05", 
        "fix_gamma": "False", 
        "momentum": "0.997", 
        "use_global_stats": "False"
      }, 
      "inputs": []
    }, 
    {
      "op": "null", 
      "name": "stage3_unit3_bn3_moving_var", 
      "attr": {
        "__init__": "[\"one\", {}]", 
        "eps": "1e-05", 
        "fix_gamma": "False", 
        "momentum": "0.997", 
        "use_global_stats": "False"
      }, 
      "inputs": []
    }, 
    {
      "op": "BatchNorm", 
      "name": "stage3_unit3_bn3", 
      "attr": {
        "eps": "1e-05", 
        "fix_gamma": "False", 
        "momentum": "0.997", 
        "use_global_stats": "False"
      }, 
      "inputs": [[281, 0, 0], [282, 0, 0], [283, 0, 0], [284, 0, 1], [285, 0, 1]]
    }, 
    {
      "op": "elemwise_add", 
      "name": "_plus9", 
      "inputs": [[286, 0, 0], [263, 0, 0]]
    }, 
    {
      "op": "Activation", 
      "name": "stage3_unit3_relu3", 
      "attr": {"act_type": "relu"}, 
      "inputs": [[287, 0, 0]]
    }, 
    {
      "op": "null", 
      "name": "stage3_unit4_conv1_weight", 
      "attr": {
        "kernel": "(1, 1)", 
        "no_bias": "True", 
        "num_filter": "256", 
        "pad": "(0, 0)", 
        "stride": "(1, 1)"
      }, 
      "inputs": []
    }, 
    {
      "op": "Convolution", 
      "name": "stage3_unit4_conv1", 
      "attr": {
        "kernel": "(1, 1)", 
        "no_bias": "True", 
        "num_filter": "256", 
        "pad": "(0, 0)", 
        "stride": "(1, 1)"
      }, 
      "inputs": [[288, 0, 0], [289, 0, 0]]
    }, 
    {
      "op": "null", 
      "name": "stage3_unit4_bn1_gamma", 
      "attr": {
        "eps": "1e-05", 
        "fix_gamma": "False", 
        "momentum": "0.997", 
        "use_global_stats": "False"
      }, 
      "inputs": []
    }, 
    {
      "op": "null", 
      "name": "stage3_unit4_bn1_beta", 
      "attr": {
        "eps": "1e-05", 
        "fix_gamma": "False", 
        "momentum": "0.997", 
        "use_global_stats": "False"
      }, 
      "inputs": []
    }, 
    {
      "op": "null", 
      "name": "stage3_unit4_bn1_moving_mean", 
      "attr": {
        "__init__": "[\"zero\", {}]", 
        "eps": "1e-05", 
        "fix_gamma": "False", 
        "momentum": "0.997", 
        "use_global_stats": "False"
      }, 
      "inputs": []
    }, 
    {
      "op": "null", 
      "name": "stage3_unit4_bn1_moving_var", 
      "attr": {
        "__init__": "[\"one\", {}]", 
        "eps": "1e-05", 
        "fix_gamma": "False", 
        "momentum": "0.997", 
        "use_global_stats": "False"
      }, 
      "inputs": []
    }, 
    {
      "op": "BatchNorm", 
      "name": "stage3_unit4_bn1", 
      "attr": {
        "eps": "1e-05", 
        "fix_gamma": "False", 
        "momentum": "0.997", 
        "use_global_stats": "False"
      }, 
      "inputs": [[290, 0, 0], [291, 0, 0], [292, 0, 0], [293, 0, 1], [294, 0, 1]]
    }, 
    {
      "op": "Activation", 
      "name": "stage3_unit4_relu1", 
      "attr": {"act_type": "relu"}, 
      "inputs": [[295, 0, 0]]
    }, 
    {
      "op": "null", 
      "name": "stage3_unit4_conv2_weight", 
      "attr": {
        "kernel": "(3, 3)", 
        "no_bias": "True", 
        "num_filter": "256", 
        "pad": "(1, 1)", 
        "stride": "(1, 1)"
      }, 
      "inputs": []
    }, 
    {
      "op": "Convolution", 
      "name": "stage3_unit4_conv2", 
      "attr": {
        "kernel": "(3, 3)", 
        "no_bias": "True", 
        "num_filter": "256", 
        "pad": "(1, 1)", 
        "stride": "(1, 1)"
      }, 
      "inputs": [[296, 0, 0], [297, 0, 0]]
    }, 
    {
      "op": "null", 
      "name": "stage3_unit4_bn2_gamma", 
      "attr": {
        "eps": "1e-05", 
        "fix_gamma": "False", 
        "momentum": "0.997", 
        "use_global_stats": "False"
      }, 
      "inputs": []
    }, 
    {
      "op": "null", 
      "name": "stage3_unit4_bn2_beta", 
      "attr": {
        "eps": "1e-05", 
        "fix_gamma": "False", 
        "momentum": "0.997", 
        "use_global_stats": "False"
      }, 
      "inputs": []
    }, 
    {
      "op": "null", 
      "name": "stage3_unit4_bn2_moving_mean", 
      "attr": {
        "__init__": "[\"zero\", {}]", 
        "eps": "1e-05", 
        "fix_gamma": "False", 
        "momentum": "0.997", 
        "use_global_stats": "False"
      }, 
      "inputs": []
    }, 
    {
      "op": "null", 
      "name": "stage3_unit4_bn2_moving_var", 
      "attr": {
        "__init__": "[\"one\", {}]", 
        "eps": "1e-05", 
        "fix_gamma": "False", 
        "momentum": "0.997", 
        "use_global_stats": "False"
      }, 
      "inputs": []
    }, 
    {
      "op": "BatchNorm", 
      "name": "stage3_unit4_bn2", 
      "attr": {
        "eps": "1e-05", 
        "fix_gamma": "False", 
        "momentum": "0.997", 
        "use_global_stats": "False"
      }, 
      "inputs": [[298, 0, 0], [299, 0, 0], [300, 0, 0], [301, 0, 1], [302, 0, 1]]
    }, 
    {
      "op": "Activation", 
      "name": "stage3_unit4_relu2", 
      "attr": {"act_type": "relu"}, 
      "inputs": [[303, 0, 0]]
    }, 
    {
      "op": "null", 
      "name": "stage3_unit4_conv3_weight", 
      "attr": {
        "kernel": "(1, 1)", 
        "no_bias": "True", 
        "num_filter": "1024", 
        "pad": "(0, 0)", 
        "stride": "(1, 1)"
      }, 
      "inputs": []
    }, 
    {
      "op": "Convolution", 
      "name": "stage3_unit4_conv3", 
      "attr": {
        "kernel": "(1, 1)", 
        "no_bias": "True", 
        "num_filter": "1024", 
        "pad": "(0, 0)", 
        "stride": "(1, 1)"
      }, 
      "inputs": [[304, 0, 0], [305, 0, 0]]
    }, 
    {
      "op": "null", 
      "name": "stage3_unit4_bn3_gamma", 
      "attr": {
        "eps": "1e-05", 
        "fix_gamma": "False", 
        "momentum": "0.997", 
        "use_global_stats": "False"
      }, 
      "inputs": []
    }, 
    {
      "op": "null", 
      "name": "stage3_unit4_bn3_beta", 
      "attr": {
        "eps": "1e-05", 
        "fix_gamma": "False", 
        "momentum": "0.997", 
        "use_global_stats": "False"
      }, 
      "inputs": []
    }, 
    {
      "op": "null", 
      "name": "stage3_unit4_bn3_moving_mean", 
      "attr": {
        "__init__": "[\"zero\", {}]", 
        "eps": "1e-05", 
        "fix_gamma": "False", 
        "momentum": "0.997", 
        "use_global_stats": "False"
      }, 
      "inputs": []
    }, 
    {
      "op": "null", 
      "name": "stage3_unit4_bn3_moving_var", 
      "attr": {
        "__init__": "[\"one\", {}]", 
        "eps": "1e-05", 
        "fix_gamma": "False", 
        "momentum": "0.997", 
        "use_global_stats": "False"
      }, 
      "inputs": []
    }, 
    {
      "op": "BatchNorm", 
      "name": "stage3_unit4_bn3", 
      "attr": {
        "eps": "1e-05", 
        "fix_gamma": "False", 
        "momentum": "0.997", 
        "use_global_stats": "False"
      }, 
      "inputs": [[306, 0, 0], [307, 0, 0], [308, 0, 0], [309, 0, 1], [310, 0, 1]]
    }, 
    {
      "op": "elemwise_add", 
      "name": "_plus10", 
      "inputs": [[311, 0, 0], [288, 0, 0]]
    }, 
    {
      "op": "Activation", 
      "name": "stage3_unit4_relu3", 
      "attr": {"act_type": "relu"}, 
      "inputs": [[312, 0, 0]]
    }, 
    {
      "op": "null", 
      "name": "stage3_unit5_conv1_weight", 
      "attr": {
        "kernel": "(1, 1)", 
        "no_bias": "True", 
        "num_filter": "256", 
        "pad": "(0, 0)", 
        "stride": "(1, 1)"
      }, 
      "inputs": []
    }, 
    {
      "op": "Convolution", 
      "name": "stage3_unit5_conv1", 
      "attr": {
        "kernel": "(1, 1)", 
        "no_bias": "True", 
        "num_filter": "256", 
        "pad": "(0, 0)", 
        "stride": "(1, 1)"
      }, 
      "inputs": [[313, 0, 0], [314, 0, 0]]
    }, 
    {
      "op": "null", 
      "name": "stage3_unit5_bn1_gamma", 
      "attr": {
        "eps": "1e-05", 
        "fix_gamma": "False", 
        "momentum": "0.997", 
        "use_global_stats": "False"
      }, 
      "inputs": []
    }, 
    {
      "op": "null", 
      "name": "stage3_unit5_bn1_beta", 
      "attr": {
        "eps": "1e-05", 
        "fix_gamma": "False", 
        "momentum": "0.997", 
        "use_global_stats": "False"
      }, 
      "inputs": []
    }, 
    {
      "op": "null", 
      "name": "stage3_unit5_bn1_moving_mean", 
      "attr": {
        "__init__": "[\"zero\", {}]", 
        "eps": "1e-05", 
        "fix_gamma": "False", 
        "momentum": "0.997", 
        "use_global_stats": "False"
      }, 
      "inputs": []
    }, 
    {
      "op": "null", 
      "name": "stage3_unit5_bn1_moving_var", 
      "attr": {
        "__init__": "[\"one\", {}]", 
        "eps": "1e-05", 
        "fix_gamma": "False", 
        "momentum": "0.997", 
        "use_global_stats": "False"
      }, 
      "inputs": []
    }, 
    {
      "op": "BatchNorm", 
      "name": "stage3_unit5_bn1", 
      "attr": {
        "eps": "1e-05", 
        "fix_gamma": "False", 
        "momentum": "0.997", 
        "use_global_stats": "False"
      }, 
      "inputs": [[315, 0, 0], [316, 0, 0], [317, 0, 0], [318, 0, 1], [319, 0, 1]]
    }, 
    {
      "op": "Activation", 
      "name": "stage3_unit5_relu1", 
      "attr": {"act_type": "relu"}, 
      "inputs": [[320, 0, 0]]
    }, 
    {
      "op": "null", 
      "name": "stage3_unit5_conv2_weight", 
      "attr": {
        "kernel": "(3, 3)", 
        "no_bias": "True", 
        "num_filter": "256", 
        "pad": "(1, 1)", 
        "stride": "(1, 1)"
      }, 
      "inputs": []
    }, 
    {
      "op": "Convolution", 
      "name": "stage3_unit5_conv2", 
      "attr": {
        "kernel": "(3, 3)", 
        "no_bias": "True", 
        "num_filter": "256", 
        "pad": "(1, 1)", 
        "stride": "(1, 1)"
      }, 
      "inputs": [[321, 0, 0], [322, 0, 0]]
    }, 
    {
      "op": "null", 
      "name": "stage3_unit5_bn2_gamma", 
      "attr": {
        "eps": "1e-05", 
        "fix_gamma": "False", 
        "momentum": "0.997", 
        "use_global_stats": "False"
      }, 
      "inputs": []
    }, 
    {
      "op": "null", 
      "name": "stage3_unit5_bn2_beta", 
      "attr": {
        "eps": "1e-05", 
        "fix_gamma": "False", 
        "momentum": "0.997", 
        "use_global_stats": "False"
      }, 
      "inputs": []
    }, 
    {
      "op": "null", 
      "name": "stage3_unit5_bn2_moving_mean", 
      "attr": {
        "__init__": "[\"zero\", {}]", 
        "eps": "1e-05", 
        "fix_gamma": "False", 
        "momentum": "0.997", 
        "use_global_stats": "False"
      }, 
      "inputs": []
    }, 
    {
      "op": "null", 
      "name": "stage3_unit5_bn2_moving_var", 
      "attr": {
        "__init__": "[\"one\", {}]", 
        "eps": "1e-05", 
        "fix_gamma": "False", 
        "momentum": "0.997", 
        "use_global_stats": "False"
      }, 
      "inputs": []
    }, 
    {
      "op": "BatchNorm", 
      "name": "stage3_unit5_bn2", 
      "attr": {
        "eps": "1e-05", 
        "fix_gamma": "False", 
        "momentum": "0.997", 
        "use_global_stats": "False"
      }, 
      "inputs": [[323, 0, 0], [324, 0, 0], [325, 0, 0], [326, 0, 1], [327, 0, 1]]
    }, 
    {
      "op": "Activation", 
      "name": "stage3_unit5_relu2", 
      "attr": {"act_type": "relu"}, 
      "inputs": [[328, 0, 0]]
    }, 
    {
      "op": "null", 
      "name": "stage3_unit5_conv3_weight", 
      "attr": {
        "kernel": "(1, 1)", 
        "no_bias": "True", 
        "num_filter": "1024", 
        "pad": "(0, 0)", 
        "stride": "(1, 1)"
      }, 
      "inputs": []
    }, 
    {
      "op": "Convolution", 
      "name": "stage3_unit5_conv3", 
      "attr": {
        "kernel": "(1, 1)", 
        "no_bias": "True", 
        "num_filter": "1024", 
        "pad": "(0, 0)", 
        "stride": "(1, 1)"
      }, 
      "inputs": [[329, 0, 0], [330, 0, 0]]
    }, 
    {
      "op": "null", 
      "name": "stage3_unit5_bn3_gamma", 
      "attr": {
        "eps": "1e-05", 
        "fix_gamma": "False", 
        "momentum": "0.997", 
        "use_global_stats": "False"
      }, 
      "inputs": []
    }, 
    {
      "op": "null", 
      "name": "stage3_unit5_bn3_beta", 
      "attr": {
        "eps": "1e-05", 
        "fix_gamma": "False", 
        "momentum": "0.997", 
        "use_global_stats": "False"
      }, 
      "inputs": []
    }, 
    {
      "op": "null", 
      "name": "stage3_unit5_bn3_moving_mean", 
      "attr": {
        "__init__": "[\"zero\", {}]", 
        "eps": "1e-05", 
        "fix_gamma": "False", 
        "momentum": "0.997", 
        "use_global_stats": "False"
      }, 
      "inputs": []
    }, 
    {
      "op": "null", 
      "name": "stage3_unit5_bn3_moving_var", 
      "attr": {
        "__init__": "[\"one\", {}]", 
        "eps": "1e-05", 
        "fix_gamma": "False", 
        "momentum": "0.997", 
        "use_global_stats": "False"
      }, 
      "inputs": []
    }, 
    {
      "op": "BatchNorm", 
      "name": "stage3_unit5_bn3", 
      "attr": {
        "eps": "1e-05", 
        "fix_gamma": "False", 
        "momentum": "0.997", 
        "use_global_stats": "False"
      }, 
      "inputs": [[331, 0, 0], [332, 0, 0], [333, 0, 0], [334, 0, 1], [335, 0, 1]]
    }, 
    {
      "op": "elemwise_add", 
      "name": "_plus11", 
      "inputs": [[336, 0, 0], [313, 0, 0]]
    }, 
    {
      "op": "Activation", 
      "name": "stage3_unit5_relu3", 
      "attr": {"act_type": "relu"}, 
      "inputs": [[337, 0, 0]]
    }, 
    {
      "op": "null", 
      "name": "stage3_unit6_conv1_weight", 
      "attr": {
        "kernel": "(1, 1)", 
        "no_bias": "True", 
        "num_filter": "256", 
        "pad": "(0, 0)", 
        "stride": "(1, 1)"
      }, 
      "inputs": []
    }, 
    {
      "op": "Convolution", 
      "name": "stage3_unit6_conv1", 
      "attr": {
        "kernel": "(1, 1)", 
        "no_bias": "True", 
        "num_filter": "256", 
        "pad": "(0, 0)", 
        "stride": "(1, 1)"
      }, 
      "inputs": [[338, 0, 0], [339, 0, 0]]
    }, 
    {
      "op": "null", 
      "name": "stage3_unit6_bn1_gamma", 
      "attr": {
        "eps": "1e-05", 
        "fix_gamma": "False", 
        "momentum": "0.997", 
        "use_global_stats": "False"
      }, 
      "inputs": []
    }, 
    {
      "op": "null", 
      "name": "stage3_unit6_bn1_beta", 
      "attr": {
        "eps": "1e-05", 
        "fix_gamma": "False", 
        "momentum": "0.997", 
        "use_global_stats": "False"
      }, 
      "inputs": []
    }, 
    {
      "op": "null", 
      "name": "stage3_unit6_bn1_moving_mean", 
      "attr": {
        "__init__": "[\"zero\", {}]", 
        "eps": "1e-05", 
        "fix_gamma": "False", 
        "momentum": "0.997", 
        "use_global_stats": "False"
      }, 
      "inputs": []
    }, 
    {
      "op": "null", 
      "name": "stage3_unit6_bn1_moving_var", 
      "attr": {
        "__init__": "[\"one\", {}]", 
        "eps": "1e-05", 
        "fix_gamma": "False", 
        "momentum": "0.997", 
        "use_global_stats": "False"
      }, 
      "inputs": []
    }, 
    {
      "op": "BatchNorm", 
      "name": "stage3_unit6_bn1", 
      "attr": {
        "eps": "1e-05", 
        "fix_gamma": "False", 
        "momentum": "0.997", 
        "use_global_stats": "False"
      }, 
      "inputs": [[340, 0, 0], [341, 0, 0], [342, 0, 0], [343, 0, 1], [344, 0, 1]]
    }, 
    {
      "op": "Activation", 
      "name": "stage3_unit6_relu1", 
      "attr": {"act_type": "relu"}, 
      "inputs": [[345, 0, 0]]
    }, 
    {
      "op": "null", 
      "name": "stage3_unit6_conv2_weight", 
      "attr": {
        "kernel": "(3, 3)", 
        "no_bias": "True", 
        "num_filter": "256", 
        "pad": "(1, 1)", 
        "stride": "(2, 2)"
      }, 
      "inputs": []
    }, 
    {
      "op": "Convolution", 
      "name": "stage3_unit6_conv2", 
      "attr": {
        "kernel": "(3, 3)", 
        "no_bias": "True", 
        "num_filter": "256", 
        "pad": "(1, 1)", 
        "stride": "(2, 2)"
      }, 
      "inputs": [[346, 0, 0], [347, 0, 0]]
    }, 
    {
      "op": "null", 
      "name": "stage3_unit6_bn2_gamma", 
      "attr": {
        "eps": "1e-05", 
        "fix_gamma": "False", 
        "momentum": "0.997", 
        "use_global_stats": "False"
      }, 
      "inputs": []
    }, 
    {
      "op": "null", 
      "name": "stage3_unit6_bn2_beta", 
      "attr": {
        "eps": "1e-05", 
        "fix_gamma": "False", 
        "momentum": "0.997", 
        "use_global_stats": "False"
      }, 
      "inputs": []
    }, 
    {
      "op": "null", 
      "name": "stage3_unit6_bn2_moving_mean", 
      "attr": {
        "__init__": "[\"zero\", {}]", 
        "eps": "1e-05", 
        "fix_gamma": "False", 
        "momentum": "0.997", 
        "use_global_stats": "False"
      }, 
      "inputs": []
    }, 
    {
      "op": "null", 
      "name": "stage3_unit6_bn2_moving_var", 
      "attr": {
        "__init__": "[\"one\", {}]", 
        "eps": "1e-05", 
        "fix_gamma": "False", 
        "momentum": "0.997", 
        "use_global_stats": "False"
      }, 
      "inputs": []
    }, 
    {
      "op": "BatchNorm", 
      "name": "stage3_unit6_bn2", 
      "attr": {
        "eps": "1e-05", 
        "fix_gamma": "False", 
        "momentum": "0.997", 
        "use_global_stats": "False"
      }, 
      "inputs": [[348, 0, 0], [349, 0, 0], [350, 0, 0], [351, 0, 1], [352, 0, 1]]
    }, 
    {
      "op": "Activation", 
      "name": "stage3_unit6_relu2", 
      "attr": {"act_type": "relu"}, 
      "inputs": [[353, 0, 0]]
    }, 
    {
      "op": "null", 
      "name": "stage3_unit6_conv3_weight", 
      "attr": {
        "kernel": "(1, 1)", 
        "no_bias": "True", 
        "num_filter": "1024", 
        "pad": "(0, 0)", 
        "stride": "(1, 1)"
      }, 
      "inputs": []
    }, 
    {
      "op": "Convolution", 
      "name": "stage3_unit6_conv3", 
      "attr": {
        "kernel": "(1, 1)", 
        "no_bias": "True", 
        "num_filter": "1024", 
        "pad": "(0, 0)", 
        "stride": "(1, 1)"
      }, 
      "inputs": [[354, 0, 0], [355, 0, 0]]
    }, 
    {
      "op": "null", 
      "name": "stage3_unit6_bn3_gamma", 
      "attr": {
        "eps": "1e-05", 
        "fix_gamma": "False", 
        "momentum": "0.997", 
        "use_global_stats": "False"
      }, 
      "inputs": []
    }, 
    {
      "op": "null", 
      "name": "stage3_unit6_bn3_beta", 
      "attr": {
        "eps": "1e-05", 
        "fix_gamma": "False", 
        "momentum": "0.997", 
        "use_global_stats": "False"
      }, 
      "inputs": []
    }, 
    {
      "op": "null", 
      "name": "stage3_unit6_bn3_moving_mean", 
      "attr": {
        "__init__": "[\"zero\", {}]", 
        "eps": "1e-05", 
        "fix_gamma": "False", 
        "momentum": "0.997", 
        "use_global_stats": "False"
      }, 
      "inputs": []
    }, 
    {
      "op": "null", 
      "name": "stage3_unit6_bn3_moving_var", 
      "attr": {
        "__init__": "[\"one\", {}]", 
        "eps": "1e-05", 
        "fix_gamma": "False", 
        "momentum": "0.997", 
        "use_global_stats": "False"
      }, 
      "inputs": []
    }, 
    {
      "op": "BatchNorm", 
      "name": "stage3_unit6_bn3", 
      "attr": {
        "eps": "1e-05", 
        "fix_gamma": "False", 
        "momentum": "0.997", 
        "use_global_stats": "False"
      }, 
      "inputs": [[356, 0, 0], [357, 0, 0], [358, 0, 0], [359, 0, 1], [360, 0, 1]]
    }, 
    {
      "op": "Pooling", 
      "name": "pooling2", 
      "attr": {
        "kernel": "(1, 1)", 
        "pool_type": "max", 
        "stride": "(2, 2)"
      }, 
      "inputs": [[338, 0, 0]]
    }, 
    {
      "op": "elemwise_add", 
      "name": "_plus12", 
      "inputs": [[361, 0, 0], [362, 0, 0]]
    }, 
    {
      "op": "Activation", 
      "name": "stage3_unit6_relu3", 
      "attr": {"act_type": "relu"}, 
      "inputs": [[363, 0, 0]]
    }, 
    {
      "op": "null", 
      "name": "stage4_unit1_conv1_weight", 
      "attr": {
        "kernel": "(1, 1)", 
        "no_bias": "True", 
        "num_filter": "512", 
        "pad": "(0, 0)", 
        "stride": "(1, 1)"
      }, 
      "inputs": []
    }, 
    {
      "op": "Convolution", 
      "name": "stage4_unit1_conv1", 
      "attr": {
        "kernel": "(1, 1)", 
        "no_bias": "True", 
        "num_filter": "512", 
        "pad": "(0, 0)", 
        "stride": "(1, 1)"
      }, 
      "inputs": [[364, 0, 0], [365, 0, 0]]
    }, 
    {
      "op": "null", 
      "name": "stage4_unit1_bn1_gamma", 
      "attr": {
        "eps": "1e-05", 
        "fix_gamma": "False", 
        "momentum": "0.997", 
        "use_global_stats": "False"
      }, 
      "inputs": []
    }, 
    {
      "op": "null", 
      "name": "stage4_unit1_bn1_beta", 
      "attr": {
        "eps": "1e-05", 
        "fix_gamma": "False", 
        "momentum": "0.997", 
        "use_global_stats": "False"
      }, 
      "inputs": []
    }, 
    {
      "op": "null", 
      "name": "stage4_unit1_bn1_moving_mean", 
      "attr": {
        "__init__": "[\"zero\", {}]", 
        "eps": "1e-05", 
        "fix_gamma": "False", 
        "momentum": "0.997", 
        "use_global_stats": "False"
      }, 
      "inputs": []
    }, 
    {
      "op": "null", 
      "name": "stage4_unit1_bn1_moving_var", 
      "attr": {
        "__init__": "[\"one\", {}]", 
        "eps": "1e-05", 
        "fix_gamma": "False", 
        "momentum": "0.997", 
        "use_global_stats": "False"
      }, 
      "inputs": []
    }, 
    {
      "op": "BatchNorm", 
      "name": "stage4_unit1_bn1", 
      "attr": {
        "eps": "1e-05", 
        "fix_gamma": "False", 
        "momentum": "0.997", 
        "use_global_stats": "False"
      }, 
      "inputs": [[366, 0, 0], [367, 0, 0], [368, 0, 0], [369, 0, 1], [370, 0, 1]]
    }, 
    {
      "op": "Activation", 
      "name": "stage4_unit1_relu1", 
      "attr": {"act_type": "relu"}, 
      "inputs": [[371, 0, 0]]
    }, 
    {
      "op": "null", 
      "name": "stage4_unit1_conv2_weight", 
      "attr": {
        "kernel": "(3, 3)", 
        "no_bias": "True", 
        "num_filter": "512", 
        "pad": "(1, 1)", 
        "stride": "(1, 1)"
      }, 
      "inputs": []
    }, 
    {
      "op": "Convolution", 
      "name": "stage4_unit1_conv2", 
      "attr": {
        "kernel": "(3, 3)", 
        "no_bias": "True", 
        "num_filter": "512", 
        "pad": "(1, 1)", 
        "stride": "(1, 1)"
      }, 
      "inputs": [[372, 0, 0], [373, 0, 0]]
    }, 
    {
      "op": "null", 
      "name": "stage4_unit1_bn2_gamma", 
      "attr": {
        "eps": "1e-05", 
        "fix_gamma": "False", 
        "momentum": "0.997", 
        "use_global_stats": "False"
      }, 
      "inputs": []
    }, 
    {
      "op": "null", 
      "name": "stage4_unit1_bn2_beta", 
      "attr": {
        "eps": "1e-05", 
        "fix_gamma": "False", 
        "momentum": "0.997", 
        "use_global_stats": "False"
      }, 
      "inputs": []
    }, 
    {
      "op": "null", 
      "name": "stage4_unit1_bn2_moving_mean", 
      "attr": {
        "__init__": "[\"zero\", {}]", 
        "eps": "1e-05", 
        "fix_gamma": "False", 
        "momentum": "0.997", 
        "use_global_stats": "False"
      }, 
      "inputs": []
    }, 
    {
      "op": "null", 
      "name": "stage4_unit1_bn2_moving_var", 
      "attr": {
        "__init__": "[\"one\", {}]", 
        "eps": "1e-05", 
        "fix_gamma": "False", 
        "momentum": "0.997", 
        "use_global_stats": "False"
      }, 
      "inputs": []
    }, 
    {
      "op": "BatchNorm", 
      "name": "stage4_unit1_bn2", 
      "attr": {
        "eps": "1e-05", 
        "fix_gamma": "False", 
        "momentum": "0.997", 
        "use_global_stats": "False"
      }, 
      "inputs": [[374, 0, 0], [375, 0, 0], [376, 0, 0], [377, 0, 1], [378, 0, 1]]
    }, 
    {
      "op": "Activation", 
      "name": "stage4_unit1_relu2", 
      "attr": {"act_type": "relu"}, 
      "inputs": [[379, 0, 0]]
    }, 
    {
      "op": "null", 
      "name": "stage4_unit1_conv3_weight", 
      "attr": {
        "kernel": "(1, 1)", 
        "no_bias": "True", 
        "num_filter": "2048", 
        "pad": "(0, 0)", 
        "stride": "(1, 1)"
      }, 
      "inputs": []
    }, 
    {
      "op": "Convolution", 
      "name": "stage4_unit1_conv3", 
      "attr": {
        "kernel": "(1, 1)", 
        "no_bias": "True", 
        "num_filter": "2048", 
        "pad": "(0, 0)", 
        "stride": "(1, 1)"
      }, 
      "inputs": [[380, 0, 0], [381, 0, 0]]
    }, 
    {
      "op": "null", 
      "name": "stage4_unit1_bn3_gamma", 
      "attr": {
        "eps": "1e-05", 
        "fix_gamma": "False", 
        "momentum": "0.997", 
        "use_global_stats": "False"
      }, 
      "inputs": []
    }, 
    {
      "op": "null", 
      "name": "stage4_unit1_bn3_beta", 
      "attr": {
        "eps": "1e-05", 
        "fix_gamma": "False", 
        "momentum": "0.997", 
        "use_global_stats": "False"
      }, 
      "inputs": []
    }, 
    {
      "op": "null", 
      "name": "stage4_unit1_bn3_moving_mean", 
      "attr": {
        "__init__": "[\"zero\", {}]", 
        "eps": "1e-05", 
        "fix_gamma": "False", 
        "momentum": "0.997", 
        "use_global_stats": "False"
      }, 
      "inputs": []
    }, 
    {
      "op": "null", 
      "name": "stage4_unit1_bn3_moving_var", 
      "attr": {
        "__init__": "[\"one\", {}]", 
        "eps": "1e-05", 
        "fix_gamma": "False", 
        "momentum": "0.997", 
        "use_global_stats": "False"
      }, 
      "inputs": []
    }, 
    {
      "op": "BatchNorm", 
      "name": "stage4_unit1_bn3", 
      "attr": {
        "eps": "1e-05", 
        "fix_gamma": "False", 
        "momentum": "0.997", 
        "use_global_stats": "False"
      }, 
      "inputs": [[382, 0, 0], [383, 0, 0], [384, 0, 0], [385, 0, 1], [386, 0, 1]]
    }, 
    {
      "op": "null", 
      "name": "stage4_unit1_sc_conv_weight", 
      "attr": {
        "kernel": "(1, 1)", 
        "no_bias": "True", 
        "num_filter": "2048", 
        "pad": "(0, 0)", 
        "stride": "(1, 1)"
      }, 
      "inputs": []
    }, 
    {
      "op": "Convolution", 
      "name": "stage4_unit1_sc_conv", 
      "attr": {
        "kernel": "(1, 1)", 
        "no_bias": "True", 
        "num_filter": "2048", 
        "pad": "(0, 0)", 
        "stride": "(1, 1)"
      }, 
      "inputs": [[364, 0, 0], [388, 0, 0]]
    }, 
    {
      "op": "null", 
      "name": "stage4_unit1_sc_bn_gamma", 
      "attr": {
        "eps": "1e-05", 
        "fix_gamma": "False", 
        "momentum": "0.997", 
        "use_global_stats": "False"
      }, 
      "inputs": []
    }, 
    {
      "op": "null", 
      "name": "stage4_unit1_sc_bn_beta", 
      "attr": {
        "eps": "1e-05", 
        "fix_gamma": "False", 
        "momentum": "0.997", 
        "use_global_stats": "False"
      }, 
      "inputs": []
    }, 
    {
      "op": "null", 
      "name": "stage4_unit1_sc_bn_moving_mean", 
      "attr": {
        "__init__": "[\"zero\", {}]", 
        "eps": "1e-05", 
        "fix_gamma": "False", 
        "momentum": "0.997", 
        "use_global_stats": "False"
      }, 
      "inputs": []
    }, 
    {
      "op": "null", 
      "name": "stage4_unit1_sc_bn_moving_var", 
      "attr": {
        "__init__": "[\"one\", {}]", 
        "eps": "1e-05", 
        "fix_gamma": "False", 
        "momentum": "0.997", 
        "use_global_stats": "False"
      }, 
      "inputs": []
    }, 
    {
      "op": "BatchNorm", 
      "name": "stage4_unit1_sc_bn", 
      "attr": {
        "eps": "1e-05", 
        "fix_gamma": "False", 
        "momentum": "0.997", 
        "use_global_stats": "False"
      }, 
      "inputs": [[389, 0, 0], [390, 0, 0], [391, 0, 0], [392, 0, 1], [393, 0, 1]]
    }, 
    {
      "op": "elemwise_add", 
      "name": "_plus13", 
      "inputs": [[387, 0, 0], [394, 0, 0]]
    }, 
    {
      "op": "Activation", 
      "name": "stage4_unit1_relu3", 
      "attr": {"act_type": "relu"}, 
      "inputs": [[395, 0, 0]]
    }, 
    {
      "op": "null", 
      "name": "stage4_unit2_conv1_weight", 
      "attr": {
        "kernel": "(1, 1)", 
        "no_bias": "True", 
        "num_filter": "512", 
        "pad": "(0, 0)", 
        "stride": "(1, 1)"
      }, 
      "inputs": []
    }, 
    {
      "op": "Convolution", 
      "name": "stage4_unit2_conv1", 
      "attr": {
        "kernel": "(1, 1)", 
        "no_bias": "True", 
        "num_filter": "512", 
        "pad": "(0, 0)", 
        "stride": "(1, 1)"
      }, 
      "inputs": [[396, 0, 0], [397, 0, 0]]
    }, 
    {
      "op": "null", 
      "name": "stage4_unit2_bn1_gamma", 
      "attr": {
        "eps": "1e-05", 
        "fix_gamma": "False", 
        "momentum": "0.997", 
        "use_global_stats": "False"
      }, 
      "inputs": []
    }, 
    {
      "op": "null", 
      "name": "stage4_unit2_bn1_beta", 
      "attr": {
        "eps": "1e-05", 
        "fix_gamma": "False", 
        "momentum": "0.997", 
        "use_global_stats": "False"
      }, 
      "inputs": []
    }, 
    {
      "op": "null", 
      "name": "stage4_unit2_bn1_moving_mean", 
      "attr": {
        "__init__": "[\"zero\", {}]", 
        "eps": "1e-05", 
        "fix_gamma": "False", 
        "momentum": "0.997", 
        "use_global_stats": "False"
      }, 
      "inputs": []
    }, 
    {
      "op": "null", 
      "name": "stage4_unit2_bn1_moving_var", 
      "attr": {
        "__init__": "[\"one\", {}]", 
        "eps": "1e-05", 
        "fix_gamma": "False", 
        "momentum": "0.997", 
        "use_global_stats": "False"
      }, 
      "inputs": []
    }, 
    {
      "op": "BatchNorm", 
      "name": "stage4_unit2_bn1", 
      "attr": {
        "eps": "1e-05", 
        "fix_gamma": "False", 
        "momentum": "0.997", 
        "use_global_stats": "False"
      }, 
      "inputs": [[398, 0, 0], [399, 0, 0], [400, 0, 0], [401, 0, 1], [402, 0, 1]]
    }, 
    {
      "op": "Activation", 
      "name": "stage4_unit2_relu1", 
      "attr": {"act_type": "relu"}, 
      "inputs": [[403, 0, 0]]
    }, 
    {
      "op": "null", 
      "name": "stage4_unit2_conv2_weight", 
      "attr": {
        "kernel": "(3, 3)", 
        "no_bias": "True", 
        "num_filter": "512", 
        "pad": "(1, 1)", 
        "stride": "(1, 1)"
      }, 
      "inputs": []
    }, 
    {
      "op": "Convolution", 
      "name": "stage4_unit2_conv2", 
      "attr": {
        "kernel": "(3, 3)", 
        "no_bias": "True", 
        "num_filter": "512", 
        "pad": "(1, 1)", 
        "stride": "(1, 1)"
      }, 
      "inputs": [[404, 0, 0], [405, 0, 0]]
    }, 
    {
      "op": "null", 
      "name": "stage4_unit2_bn2_gamma", 
      "attr": {
        "eps": "1e-05", 
        "fix_gamma": "False", 
        "momentum": "0.997", 
        "use_global_stats": "False"
      }, 
      "inputs": []
    }, 
    {
      "op": "null", 
      "name": "stage4_unit2_bn2_beta", 
      "attr": {
        "eps": "1e-05", 
        "fix_gamma": "False", 
        "momentum": "0.997", 
        "use_global_stats": "False"
      }, 
      "inputs": []
    }, 
    {
      "op": "null", 
      "name": "stage4_unit2_bn2_moving_mean", 
      "attr": {
        "__init__": "[\"zero\", {}]", 
        "eps": "1e-05", 
        "fix_gamma": "False", 
        "momentum": "0.997", 
        "use_global_stats": "False"
      }, 
      "inputs": []
    }, 
    {
      "op": "null", 
      "name": "stage4_unit2_bn2_moving_var", 
      "attr": {
        "__init__": "[\"one\", {}]", 
        "eps": "1e-05", 
        "fix_gamma": "False", 
        "momentum": "0.997", 
        "use_global_stats": "False"
      }, 
      "inputs": []
    }, 
    {
      "op": "BatchNorm", 
      "name": "stage4_unit2_bn2", 
      "attr": {
        "eps": "1e-05", 
        "fix_gamma": "False", 
        "momentum": "0.997", 
        "use_global_stats": "False"
      }, 
      "inputs": [[406, 0, 0], [407, 0, 0], [408, 0, 0], [409, 0, 1], [410, 0, 1]]
    }, 
    {
      "op": "Activation", 
      "name": "stage4_unit2_relu2", 
      "attr": {"act_type": "relu"}, 
      "inputs": [[411, 0, 0]]
    }, 
    {
      "op": "null", 
      "name": "stage4_unit2_conv3_weight", 
      "attr": {
        "kernel": "(1, 1)", 
        "no_bias": "True", 
        "num_filter": "2048", 
        "pad": "(0, 0)", 
        "stride": "(1, 1)"
      }, 
      "inputs": []
    }, 
    {
      "op": "Convolution", 
      "name": "stage4_unit2_conv3", 
      "attr": {
        "kernel": "(1, 1)", 
        "no_bias": "True", 
        "num_filter": "2048", 
        "pad": "(0, 0)", 
        "stride": "(1, 1)"
      }, 
      "inputs": [[412, 0, 0], [413, 0, 0]]
    }, 
    {
      "op": "null", 
      "name": "stage4_unit2_bn3_gamma", 
      "attr": {
        "eps": "1e-05", 
        "fix_gamma": "False", 
        "momentum": "0.997", 
        "use_global_stats": "False"
      }, 
      "inputs": []
    }, 
    {
      "op": "null", 
      "name": "stage4_unit2_bn3_beta", 
      "attr": {
        "eps": "1e-05", 
        "fix_gamma": "False", 
        "momentum": "0.997", 
        "use_global_stats": "False"
      }, 
      "inputs": []
    }, 
    {
      "op": "null", 
      "name": "stage4_unit2_bn3_moving_mean", 
      "attr": {
        "__init__": "[\"zero\", {}]", 
        "eps": "1e-05", 
        "fix_gamma": "False", 
        "momentum": "0.997", 
        "use_global_stats": "False"
      }, 
      "inputs": []
    }, 
    {
      "op": "null", 
      "name": "stage4_unit2_bn3_moving_var", 
      "attr": {
        "__init__": "[\"one\", {}]", 
        "eps": "1e-05", 
        "fix_gamma": "False", 
        "momentum": "0.997", 
        "use_global_stats": "False"
      }, 
      "inputs": []
    }, 
    {
      "op": "BatchNorm", 
      "name": "stage4_unit2_bn3", 
      "attr": {
        "eps": "1e-05", 
        "fix_gamma": "False", 
        "momentum": "0.997", 
        "use_global_stats": "False"
      }, 
      "inputs": [[414, 0, 0], [415, 0, 0], [416, 0, 0], [417, 0, 1], [418, 0, 1]]
    }, 
    {
      "op": "elemwise_add", 
      "name": "_plus14", 
      "inputs": [[419, 0, 0], [396, 0, 0]]
    }, 
    {
      "op": "Activation", 
      "name": "stage4_unit2_relu3", 
      "attr": {"act_type": "relu"}, 
      "inputs": [[420, 0, 0]]
    }, 
    {
      "op": "null", 
      "name": "stage4_unit3_conv1_weight", 
      "attr": {
        "kernel": "(1, 1)", 
        "no_bias": "True", 
        "num_filter": "512", 
        "pad": "(0, 0)", 
        "stride": "(1, 1)"
      }, 
      "inputs": []
    }, 
    {
      "op": "Convolution", 
      "name": "stage4_unit3_conv1", 
      "attr": {
        "kernel": "(1, 1)", 
        "no_bias": "True", 
        "num_filter": "512", 
        "pad": "(0, 0)", 
        "stride": "(1, 1)"
      }, 
      "inputs": [[421, 0, 0], [422, 0, 0]]
    }, 
    {
      "op": "null", 
      "name": "stage4_unit3_bn1_gamma", 
      "attr": {
        "eps": "1e-05", 
        "fix_gamma": "False", 
        "momentum": "0.997", 
        "use_global_stats": "False"
      }, 
      "inputs": []
    }, 
    {
      "op": "null", 
      "name": "stage4_unit3_bn1_beta", 
      "attr": {
        "eps": "1e-05", 
        "fix_gamma": "False", 
        "momentum": "0.997", 
        "use_global_stats": "False"
      }, 
      "inputs": []
    }, 
    {
      "op": "null", 
      "name": "stage4_unit3_bn1_moving_mean", 
      "attr": {
        "__init__": "[\"zero\", {}]", 
        "eps": "1e-05", 
        "fix_gamma": "False", 
        "momentum": "0.997", 
        "use_global_stats": "False"
      }, 
      "inputs": []
    }, 
    {
      "op": "null", 
      "name": "stage4_unit3_bn1_moving_var", 
      "attr": {
        "__init__": "[\"one\", {}]", 
        "eps": "1e-05", 
        "fix_gamma": "False", 
        "momentum": "0.997", 
        "use_global_stats": "False"
      }, 
      "inputs": []
    }, 
    {
      "op": "BatchNorm", 
      "name": "stage4_unit3_bn1", 
      "attr": {
        "eps": "1e-05", 
        "fix_gamma": "False", 
        "momentum": "0.997", 
        "use_global_stats": "False"
      }, 
      "inputs": [[423, 0, 0], [424, 0, 0], [425, 0, 0], [426, 0, 1], [427, 0, 1]]
    }, 
    {
      "op": "Activation", 
      "name": "stage4_unit3_relu1", 
      "attr": {"act_type": "relu"}, 
      "inputs": [[428, 0, 0]]
    }, 
    {
      "op": "null", 
      "name": "stage4_unit3_conv2_weight", 
      "attr": {
        "kernel": "(3, 3)", 
        "no_bias": "True", 
        "num_filter": "512", 
        "pad": "(1, 1)", 
        "stride": "(1, 1)"
      }, 
      "inputs": []
    }, 
    {
      "op": "Convolution", 
      "name": "stage4_unit3_conv2", 
      "attr": {
        "kernel": "(3, 3)", 
        "no_bias": "True", 
        "num_filter": "512", 
        "pad": "(1, 1)", 
        "stride": "(1, 1)"
      }, 
      "inputs": [[429, 0, 0], [430, 0, 0]]
    }, 
    {
      "op": "null", 
      "name": "stage4_unit3_bn2_gamma", 
      "attr": {
        "eps": "1e-05", 
        "fix_gamma": "False", 
        "momentum": "0.997", 
        "use_global_stats": "False"
      }, 
      "inputs": []
    }, 
    {
      "op": "null", 
      "name": "stage4_unit3_bn2_beta", 
      "attr": {
        "eps": "1e-05", 
        "fix_gamma": "False", 
        "momentum": "0.997", 
        "use_global_stats": "False"
      }, 
      "inputs": []
    }, 
    {
      "op": "null", 
      "name": "stage4_unit3_bn2_moving_mean", 
      "attr": {
        "__init__": "[\"zero\", {}]", 
        "eps": "1e-05", 
        "fix_gamma": "False", 
        "momentum": "0.997", 
        "use_global_stats": "False"
      }, 
      "inputs": []
    }, 
    {
      "op": "null", 
      "name": "stage4_unit3_bn2_moving_var", 
      "attr": {
        "__init__": "[\"one\", {}]", 
        "eps": "1e-05", 
        "fix_gamma": "False", 
        "momentum": "0.997", 
        "use_global_stats": "False"
      }, 
      "inputs": []
    }, 
    {
      "op": "BatchNorm", 
      "name": "stage4_unit3_bn2", 
      "attr": {
        "eps": "1e-05", 
        "fix_gamma": "False", 
        "momentum": "0.997", 
        "use_global_stats": "False"
      }, 
      "inputs": [[431, 0, 0], [432, 0, 0], [433, 0, 0], [434, 0, 1], [435, 0, 1]]
    }, 
    {
      "op": "Activation", 
      "name": "stage4_unit3_relu2", 
      "attr": {"act_type": "relu"}, 
      "inputs": [[436, 0, 0]]
    }, 
    {
      "op": "null", 
      "name": "stage4_unit3_conv3_weight", 
      "attr": {
        "kernel": "(1, 1)", 
        "no_bias": "True", 
        "num_filter": "2048", 
        "pad": "(0, 0)", 
        "stride": "(1, 1)"
      }, 
      "inputs": []
    }, 
    {
      "op": "Convolution", 
      "name": "stage4_unit3_conv3", 
      "attr": {
        "kernel": "(1, 1)", 
        "no_bias": "True", 
        "num_filter": "2048", 
        "pad": "(0, 0)", 
        "stride": "(1, 1)"
      }, 
      "inputs": [[437, 0, 0], [438, 0, 0]]
    }, 
    {
      "op": "null", 
      "name": "stage4_unit3_bn3_gamma", 
      "attr": {
        "eps": "1e-05", 
        "fix_gamma": "False", 
        "momentum": "0.997", 
        "use_global_stats": "False"
      }, 
      "inputs": []
    }, 
    {
      "op": "null", 
      "name": "stage4_unit3_bn3_beta", 
      "attr": {
        "eps": "1e-05", 
        "fix_gamma": "False", 
        "momentum": "0.997", 
        "use_global_stats": "False"
      }, 
      "inputs": []
    }, 
    {
      "op": "null", 
      "name": "stage4_unit3_bn3_moving_mean", 
      "attr": {
        "__init__": "[\"zero\", {}]", 
        "eps": "1e-05", 
        "fix_gamma": "False", 
        "momentum": "0.997", 
        "use_global_stats": "False"
      }, 
      "inputs": []
    }, 
    {
      "op": "null", 
      "name": "stage4_unit3_bn3_moving_var", 
      "attr": {
        "__init__": "[\"one\", {}]", 
        "eps": "1e-05", 
        "fix_gamma": "False", 
        "momentum": "0.997", 
        "use_global_stats": "False"
      }, 
      "inputs": []
    }, 
    {
      "op": "BatchNorm", 
      "name": "stage4_unit3_bn3", 
      "attr": {
        "eps": "1e-05", 
        "fix_gamma": "False", 
        "momentum": "0.997", 
        "use_global_stats": "False"
      }, 
      "inputs": [[439, 0, 0], [440, 0, 0], [441, 0, 0], [442, 0, 1], [443, 0, 1]]
    }, 
    {
      "op": "elemwise_add", 
      "name": "_plus15", 
      "inputs": [[444, 0, 0], [421, 0, 0]]
    }, 
    {
      "op": "Activation", 
      "name": "relu_pool5", 
      "attr": {"act_type": "relu"}, 
      "inputs": [[445, 0, 0]]
    }, 
    {
      "op": "null", 
      "name": "upsampling0_weight", 
      "attr": {
        "__init__": "[\"bilinear\", {}]", 
        "num_args": "1", 
        "num_filter": "2048", 
        "sample_type": "bilinear", 
        "scale": "2"
      }, 
      "inputs": []
    }, 
    {
      "op": "UpSampling", 
      "name": "upsampling0", 
      "attr": {
        "num_args": "1", 
        "num_filter": "2048", 
        "sample_type": "bilinear", 
        "scale": "2"
      }, 
      "inputs": [[446, 0, 0], [447, 0, 0]]
    }, 
    {
      "op": "Concat", 
      "name": "concat1", 
      "attr": {
        "dim": "1", 
        "num_args": "2"
      }, 
      "inputs": [[448, 0, 0], [206, 0, 0]]
    }, 
    {
      "op": "null", 
      "name": "convolution0_weight", 
      "attr": {
        "kernel": "(1, 1)", 
        "no_bias": "True", 
        "num_filter": "128"
      }, 
      "inputs": []
    }, 
    {
      "op": "Convolution", 
      "name": "convolution0", 
      "attr": {
        "kernel": "(1, 1)", 
        "no_bias": "True", 
        "num_filter": "128"
      }, 
      "inputs": [[449, 0, 0], [450, 0, 0]]
    }, 
    {
      "op": "null", 
      "name": "batchnorm0_gamma", 
      "attr": {
        "eps": "1e-05", 
        "fix_gamma": "False", 
        "momentum": "0.997", 
        "use_global_stats": "False"
      }, 
      "inputs": []
    }, 
    {
      "op": "null", 
      "name": "batchnorm0_beta", 
      "attr": {
        "eps": "1e-05", 
        "fix_gamma": "False", 
        "momentum": "0.997", 
        "use_global_stats": "False"
      }, 
      "inputs": []
    }, 
    {
      "op": "null", 
      "name": "batchnorm0_moving_mean", 
      "attr": {
        "__init__": "[\"zero\", {}]", 
        "eps": "1e-05", 
        "fix_gamma": "False", 
        "momentum": "0.997", 
        "use_global_stats": "False"
      }, 
      "inputs": []
    }, 
    {
      "op": "null", 
      "name": "batchnorm0_moving_var", 
      "attr": {
        "__init__": "[\"one\", {}]", 
        "eps": "1e-05", 
        "fix_gamma": "False", 
        "momentum": "0.997", 
        "use_global_stats": "False"
      }, 
      "inputs": []
    }, 
    {
      "op": "BatchNorm", 
      "name": "batchnorm0", 
      "attr": {
        "eps": "1e-05", 
        "fix_gamma": "False", 
        "momentum": "0.997", 
        "use_global_stats": "False"
      }, 
      "inputs": [[451, 0, 0], [452, 0, 0], [453, 0, 0], [454, 0, 1], [455, 0, 1]]
    }, 
    {
      "op": "null", 
      "name": "convolution1_weight", 
      "attr": {
        "kernel": "(3, 3)", 
        "no_bias": "True", 
        "num_filter": "128", 
        "pad": "(1, 1)"
      }, 
      "inputs": []
    }, 
    {
      "op": "Convolution", 
      "name": "convolution1", 
      "attr": {
        "kernel": "(3, 3)", 
        "no_bias": "True", 
        "num_filter": "128", 
        "pad": "(1, 1)"
      }, 
      "inputs": [[456, 0, 0], [457, 0, 0]]
    }, 
    {
      "op": "null", 
      "name": "batchnorm1_gamma", 
      "attr": {
        "eps": "1e-05", 
        "fix_gamma": "False", 
        "momentum": "0.997", 
        "use_global_stats": "False"
      }, 
      "inputs": []
    }, 
    {
      "op": "null", 
      "name": "batchnorm1_beta", 
      "attr": {
        "eps": "1e-05", 
        "fix_gamma": "False", 
        "momentum": "0.997", 
        "use_global_stats": "False"
      }, 
      "inputs": []
    }, 
    {
      "op": "null", 
      "name": "batchnorm1_moving_mean", 
      "attr": {
        "__init__": "[\"zero\", {}]", 
        "eps": "1e-05", 
        "fix_gamma": "False", 
        "momentum": "0.997", 
        "use_global_stats": "False"
      }, 
      "inputs": []
    }, 
    {
      "op": "null", 
      "name": "batchnorm1_moving_var", 
      "attr": {
        "__init__": "[\"one\", {}]", 
        "eps": "1e-05", 
        "fix_gamma": "False", 
        "momentum": "0.997", 
        "use_global_stats": "False"
      }, 
      "inputs": []
    }, 
    {
      "op": "BatchNorm", 
      "name": "batchnorm1", 
      "attr": {
        "eps": "1e-05", 
        "fix_gamma": "False", 
        "momentum": "0.997", 
        "use_global_stats": "False"
      }, 
      "inputs": [[458, 0, 0], [459, 0, 0], [460, 0, 0], [461, 0, 1], [462, 0, 1]]
    }, 
    {
      "op": "null", 
      "name": "upsampling1_weight", 
      "attr": {
        "__init__": "[\"bilinear\", {}]", 
        "num_args": "1", 
        "num_filter": "128", 
        "sample_type": "bilinear", 
        "scale": "2"
      }, 
      "inputs": []
    }, 
    {
      "op": "UpSampling", 
      "name": "upsampling1", 
      "attr": {
        "num_args": "1", 
        "num_filter": "128", 
        "sample_type": "bilinear", 
        "scale": "2"
      }, 
      "inputs": [[463, 0, 0], [464, 0, 0]]
    }, 
    {
      "op": "Concat", 
      "name": "concat2", 
      "attr": {
        "dim": "1", 
        "num_args": "2"
      }, 
      "inputs": [[465, 0, 0], [98, 0, 0]]
    }, 
    {
      "op": "null", 
      "name": "convolution2_weight", 
      "attr": {
        "kernel": "(1, 1)", 
        "no_bias": "True", 
        "num_filter": "64"
      }, 
      "inputs": []
    }, 
    {
      "op": "Convolution", 
      "name": "convolution2", 
      "attr": {
        "kernel": "(1, 1)", 
        "no_bias": "True", 
        "num_filter": "64"
      }, 
      "inputs": [[466, 0, 0], [467, 0, 0]]
    }, 
    {
      "op": "null", 
      "name": "batchnorm2_gamma", 
      "attr": {
        "eps": "1e-05", 
        "fix_gamma": "False", 
        "momentum": "0.997", 
        "use_global_stats": "False"
      }, 
      "inputs": []
    }, 
    {
      "op": "null", 
      "name": "batchnorm2_beta", 
      "attr": {
        "eps": "1e-05", 
        "fix_gamma": "False", 
        "momentum": "0.997", 
        "use_global_stats": "False"
      }, 
      "inputs": []
    }, 
    {
      "op": "null", 
      "name": "batchnorm2_moving_mean", 
      "attr": {
        "__init__": "[\"zero\", {}]", 
        "eps": "1e-05", 
        "fix_gamma": "False", 
        "momentum": "0.997", 
        "use_global_stats": "False"
      }, 
      "inputs": []
    }, 
    {
      "op": "null", 
      "name": "batchnorm2_moving_var", 
      "attr": {
        "__init__": "[\"one\", {}]", 
        "eps": "1e-05", 
        "fix_gamma": "False", 
        "momentum": "0.997", 
        "use_global_stats": "False"
      }, 
      "inputs": []
    }, 
    {
      "op": "BatchNorm", 
      "name": "batchnorm2", 
      "attr": {
        "eps": "1e-05", 
        "fix_gamma": "False", 
        "momentum": "0.997", 
        "use_global_stats": "False"
      }, 
      "inputs": [[468, 0, 0], [469, 0, 0], [470, 0, 0], [471, 0, 1], [472, 0, 1]]
    }, 
    {
      "op": "null", 
      "name": "convolution3_weight", 
      "attr": {
        "kernel": "(3, 3)", 
        "no_bias": "True", 
        "num_filter": "64", 
        "pad": "(1, 1)"
      }, 
      "inputs": []
    }, 
    {
      "op": "Convolution", 
      "name": "convolution3", 
      "attr": {
        "kernel": "(3, 3)", 
        "no_bias": "True", 
        "num_filter": "64", 
        "pad": "(1, 1)"
      }, 
      "inputs": [[473, 0, 0], [474, 0, 0]]
    }, 
    {
      "op": "null", 
      "name": "batchnorm3_gamma", 
      "attr": {
        "eps": "1e-05", 
        "fix_gamma": "False", 
        "momentum": "0.997", 
        "use_global_stats": "False"
      }, 
      "inputs": []
    }, 
    {
      "op": "null", 
      "name": "batchnorm3_beta", 
      "attr": {
        "eps": "1e-05", 
        "fix_gamma": "False", 
        "momentum": "0.997", 
        "use_global_stats": "False"
      }, 
      "inputs": []
    }, 
    {
      "op": "null", 
      "name": "batchnorm3_moving_mean", 
      "attr": {
        "__init__": "[\"zero\", {}]", 
        "eps": "1e-05", 
        "fix_gamma": "False", 
        "momentum": "0.997", 
        "use_global_stats": "False"
      }, 
      "inputs": []
    }, 
    {
      "op": "null", 
      "name": "batchnorm3_moving_var", 
      "attr": {
        "__init__": "[\"one\", {}]", 
        "eps": "1e-05", 
        "fix_gamma": "False", 
        "momentum": "0.997", 
        "use_global_stats": "False"
      }, 
      "inputs": []
    }, 
    {
      "op": "BatchNorm", 
      "name": "batchnorm3", 
      "attr": {
        "eps": "1e-05", 
        "fix_gamma": "False", 
        "momentum": "0.997", 
        "use_global_stats": "False"
      }, 
      "inputs": [[475, 0, 0], [476, 0, 0], [477, 0, 0], [478, 0, 1], [479, 0, 1]]
    }, 
    {
      "op": "null", 
      "name": "upsampling2_weight", 
      "attr": {
        "__init__": "[\"bilinear\", {}]", 
        "num_args": "1", 
        "num_filter": "64", 
        "sample_type": "bilinear", 
        "scale": "2"
      }, 
      "inputs": []
    }, 
    {
      "op": "UpSampling", 
      "name": "upsampling2", 
      "attr": {
        "num_args": "1", 
        "num_filter": "64", 
        "sample_type": "bilinear", 
        "scale": "2"
      }, 
      "inputs": [[480, 0, 0], [481, 0, 0]]
    }, 
    {
      "op": "Concat", 
      "name": "concat3", 
      "attr": {
        "dim": "1", 
        "num_args": "2"
      }, 
      "inputs": [[482, 0, 0], [15, 0, 0]]
    }, 
    {
      "op": "null", 
      "name": "convolution4_weight", 
      "attr": {
        "kernel": "(1, 1)", 
        "no_bias": "True", 
        "num_filter": "32"
      }, 
      "inputs": []
    }, 
    {
      "op": "Convolution", 
      "name": "convolution4", 
      "attr": {
        "kernel": "(1, 1)", 
        "no_bias": "True", 
        "num_filter": "32"
      }, 
      "inputs": [[483, 0, 0], [484, 0, 0]]
    }, 
    {
      "op": "null", 
      "name": "batchnorm4_gamma", 
      "attr": {
        "eps": "1e-05", 
        "fix_gamma": "False", 
        "momentum": "0.997", 
        "use_global_stats": "False"
      }, 
      "inputs": []
    }, 
    {
      "op": "null", 
      "name": "batchnorm4_beta", 
      "attr": {
        "eps": "1e-05", 
        "fix_gamma": "False", 
        "momentum": "0.997", 
        "use_global_stats": "False"
      }, 
      "inputs": []
    }, 
    {
      "op": "null", 
      "name": "batchnorm4_moving_mean", 
      "attr": {
        "__init__": "[\"zero\", {}]", 
        "eps": "1e-05", 
        "fix_gamma": "False", 
        "momentum": "0.997", 
        "use_global_stats": "False"
      }, 
      "inputs": []
    }, 
    {
      "op": "null", 
      "name": "batchnorm4_moving_var", 
      "attr": {
        "__init__": "[\"one\", {}]", 
        "eps": "1e-05", 
        "fix_gamma": "False", 
        "momentum": "0.997", 
        "use_global_stats": "False"
      }, 
      "inputs": []
    }, 
    {
      "op": "BatchNorm", 
      "name": "batchnorm4", 
      "attr": {
        "eps": "1e-05", 
        "fix_gamma": "False", 
        "momentum": "0.997", 
        "use_global_stats": "False"
      }, 
      "inputs": [[485, 0, 0], [486, 0, 0], [487, 0, 0], [488, 0, 1], [489, 0, 1]]
    }, 
    {
      "op": "null", 
      "name": "convolution5_weight", 
      "attr": {
        "kernel": "(3, 3)", 
        "no_bias": "True", 
        "num_filter": "32", 
        "pad": "(1, 1)"
      }, 
      "inputs": []
    }, 
    {
      "op": "Convolution", 
      "name": "convolution5", 
      "attr": {
        "kernel": "(3, 3)", 
        "no_bias": "True", 
        "num_filter": "32", 
        "pad": "(1, 1)"
      }, 
      "inputs": [[490, 0, 0], [491, 0, 0]]
    }, 
    {
      "op": "null", 
      "name": "batchnorm5_gamma", 
      "attr": {
        "eps": "1e-05", 
        "fix_gamma": "False", 
        "momentum": "0.997", 
        "use_global_stats": "False"
      }, 
      "inputs": []
    }, 
    {
      "op": "null", 
      "name": "batchnorm5_beta", 
      "attr": {
        "eps": "1e-05", 
        "fix_gamma": "False", 
        "momentum": "0.997", 
        "use_global_stats": "False"
      }, 
      "inputs": []
    }, 
    {
      "op": "null", 
      "name": "batchnorm5_moving_mean", 
      "attr": {
        "__init__": "[\"zero\", {}]", 
        "eps": "1e-05", 
        "fix_gamma": "False", 
        "momentum": "0.997", 
        "use_global_stats": "False"
      }, 
      "inputs": []
    }, 
    {
      "op": "null", 
      "name": "batchnorm5_moving_var", 
      "attr": {
        "__init__": "[\"one\", {}]", 
        "eps": "1e-05", 
        "fix_gamma": "False", 
        "momentum": "0.997", 
        "use_global_stats": "False"
      }, 
      "inputs": []
    }, 
    {
      "op": "BatchNorm", 
      "name": "batchnorm5", 
      "attr": {
        "eps": "1e-05", 
        "fix_gamma": "False", 
        "momentum": "0.997", 
        "use_global_stats": "False"
      }, 
      "inputs": [[492, 0, 0], [493, 0, 0], [494, 0, 0], [495, 0, 1], [496, 0, 1]]
    }, 
    {
      "op": "null", 
      "name": "convolution6_weight", 
      "attr": {
        "kernel": "(3, 3)", 
        "no_bias": "True", 
        "num_filter": "32", 
        "pad": "(1, 1)"
      }, 
      "inputs": []
    }, 
    {
      "op": "Convolution", 
      "name": "convolution6", 
      "attr": {
        "kernel": "(3, 3)", 
        "no_bias": "True", 
        "num_filter": "32", 
        "pad": "(1, 1)"
      }, 
      "inputs": [[497, 0, 0], [498, 0, 0]]
    }, 
    {
      "op": "null", 
      "name": "batchnorm6_gamma", 
      "attr": {
        "eps": "1e-05", 
        "fix_gamma": "False", 
        "momentum": "0.997", 
        "use_global_stats": "False"
      }, 
      "inputs": []
    }, 
    {
      "op": "null", 
      "name": "batchnorm6_beta", 
      "attr": {
        "eps": "1e-05", 
        "fix_gamma": "False", 
        "momentum": "0.997", 
        "use_global_stats": "False"
      }, 
      "inputs": []
    }, 
    {
      "op": "null", 
      "name": "batchnorm6_moving_mean", 
      "attr": {
        "__init__": "[\"zero\", {}]", 
        "eps": "1e-05", 
        "fix_gamma": "False", 
        "momentum": "0.997", 
        "use_global_stats": "False"
      }, 
      "inputs": []
    }, 
    {
      "op": "null", 
      "name": "batchnorm6_moving_var", 
      "attr": {
        "__init__": "[\"one\", {}]", 
        "eps": "1e-05", 
        "fix_gamma": "False", 
        "momentum": "0.997", 
        "use_global_stats": "False"
      }, 
      "inputs": []
    }, 
    {
      "op": "BatchNorm", 
      "name": "batchnorm6", 
      "attr": {
        "eps": "1e-05", 
        "fix_gamma": "False", 
        "momentum": "0.997", 
        "use_global_stats": "False"
      }, 
      "inputs": [[499, 0, 0], [500, 0, 0], [501, 0, 0], [502, 0, 1], [503, 0, 1]]
    }, 
    {
      "op": "null", 
      "name": "convolution7_weight", 
      "attr": {
        "kernel": "(1, 1)", 
        "num_filter": "1"
      }, 
      "inputs": []
    }, 
    {
      "op": "null", 
      "name": "convolution7_bias", 
      "attr": {
        "kernel": "(1, 1)", 
        "num_filter": "1"
      }, 
      "inputs": []
    }, 
    {
      "op": "Convolution", 
      "name": "convolution7", 
      "attr": {
        "kernel": "(1, 1)", 
        "num_filter": "1"
      }, 
      "inputs": [[504, 0, 0], [505, 0, 0], [506, 0, 0]]
    }, 
    {
      "op": "Activation", 
      "name": "activation0", 
      "attr": {"act_type": "sigmoid"}, 
      "inputs": [[507, 0, 0]]
    }, 
    {
      "op": "elemwise_mul", 
      "name": "_mul0", 
      "inputs": [[0, 0, 0], [508, 0, 0]]
    }, 
    {
      "op": "null", 
      "name": "training_mask", 
      "inputs": []
    }, 
    {
      "op": "elemwise_mul", 
      "name": "_mul1", 
      "inputs": [[509, 0, 0], [510, 0, 0]]
    }, 
    {
      "op": "sum", 
      "name": "sum0", 
      "inputs": [[511, 0, 0]]
    }, 
    {
      "op": "_mul_scalar", 
      "name": "_mulscalar2", 
      "attr": {"scalar": "2"}, 
      "inputs": [[512, 0, 0]]
    }, 
    {
      "op": "elemwise_mul", 
      "name": "_mul2", 
      "inputs": [[0, 0, 0], [510, 0, 0]]
    }, 
    {
      "op": "sum", 
      "name": "sum1", 
      "inputs": [[514, 0, 0]]
    }, 
    {
      "op": "elemwise_mul", 
      "name": "_mul3", 
      "inputs": [[508, 0, 0], [510, 0, 0]]
    }, 
    {
      "op": "sum", 
      "name": "sum2", 
      "inputs": [[516, 0, 0]]
    }, 
    {
      "op": "elemwise_add", 
      "name": "_plus16", 
      "inputs": [[515, 0, 0], [517, 0, 0]]
    }, 
    {
      "op": "_plus_scalar", 
      "name": "_plusscalar0", 
      "attr": {"scalar": "1e-05"}, 
      "inputs": [[518, 0, 0]]
    }, 
    {
      "op": "elemwise_div", 
      "name": "_div0", 
      "inputs": [[513, 0, 0], [519, 0, 0]]
    }, 
    {
      "op": "_rminus_scalar", 
      "name": "_rminusscalar0", 
      "attr": {"scalar": "1.0"}, 
      "inputs": [[520, 0, 0]]
    }, 
    {
      "op": "_mul_scalar", 
      "name": "_mulscalar3", 
      "attr": {"scalar": "0.01"}, 
      "inputs": [[521, 0, 0]]
    }, 
    {
      "op": "MakeLoss", 
      "name": "makeloss0", 
      "inputs": [[522, 0, 0]]
    }, 
    {
      "op": "null", 
      "name": "gt_geo", 
      "inputs": []
    }, 
    {
      "op": "SliceChannel", 
      "name": "split1", 
      "attr": {
        "axis": "1", 
        "num_outputs": "5"
      }, 
      "inputs": [[524, 0, 0]]
    }, 
    {
      "op": "null", 
      "name": "convolution8_weight", 
      "attr": {
        "kernel": "(1, 1)", 
        "num_filter": "4"
      }, 
      "inputs": []
    }, 
    {
      "op": "null", 
      "name": "convolution8_bias", 
      "attr": {
        "kernel": "(1, 1)", 
        "num_filter": "4"
      }, 
      "inputs": []
    }, 
    {
      "op": "Convolution", 
      "name": "convolution8", 
      "attr": {
        "kernel": "(1, 1)", 
        "num_filter": "4"
      }, 
      "inputs": [[504, 0, 0], [526, 0, 0], [527, 0, 0]]
    }, 
    {
      "op": "Activation", 
      "name": "activation1", 
      "attr": {"act_type": "sigmoid"}, 
      "inputs": [[528, 0, 0]]
    }, 
    {
      "op": "_mul_scalar", 
      "name": "_mulscalar0", 
      "attr": {"scalar": "512"}, 
      "inputs": [[529, 0, 0]]
    }, 
    {
      "op": "null", 
      "name": "convolution9_weight", 
      "attr": {
        "kernel": "(1, 1)", 
        "num_filter": "1"
      }, 
      "inputs": []
    }, 
    {
      "op": "null", 
      "name": "convolution9_bias", 
      "attr": {
        "kernel": "(1, 1)", 
        "num_filter": "1"
      }, 
      "inputs": []
    }, 
    {
      "op": "Convolution", 
      "name": "convolution9", 
      "attr": {
        "kernel": "(1, 1)", 
        "num_filter": "1"
      }, 
      "inputs": [[504, 0, 0], [531, 0, 0], [532, 0, 0]]
    }, 
    {
      "op": "Activation", 
      "name": "activation2", 
      "attr": {"act_type": "sigmoid"}, 
      "inputs": [[533, 0, 0]]
    }, 
    {
      "op": "_minus_scalar", 
      "name": "_minusscalar3", 
      "attr": {"scalar": "0.5"}, 
      "inputs": [[534, 0, 0]]
    }, 
    {
      "op": "_mul_scalar", 
      "name": "_mulscalar1", 
      "attr": {"scalar": "3.14159265359"}, 
      "inputs": [[535, 0, 0]]
    }, 
    {
      "op": "_div_scalar", 
      "name": "_divscalar0", 
      "attr": {"scalar": "2"}, 
      "inputs": [[536, 0, 0]]
    }, 
    {
      "op": "Concat", 
      "name": "concat4", 
      "attr": {
        "dim": "1", 
        "num_args": "2"
      }, 
      "inputs": [[530, 0, 0], [537, 0, 0]]
    }, 
    {
      "op": "SliceChannel", 
      "name": "split2", 
      "attr": {
        "axis": "1", 
        "num_outputs": "5"
      }, 
      "inputs": [[538, 0, 0]]
    }, 
    {
      "op": "broadcast_minimum", 
      "name": "broadcast_minimum0", 
      "inputs": [[525, 1, 0], [539, 1, 0]]
    }, 
    {
      "op": "broadcast_minimum", 
      "name": "broadcast_minimum1", 
      "inputs": [[525, 3, 0], [539, 3, 0]]
    }, 
    {
      "op": "elemwise_add", 
      "name": "_plus21", 
      "inputs": [[540, 0, 0], [541, 0, 0]]
    }, 
    {
      "op": "broadcast_minimum", 
      "name": "broadcast_minimum2", 
      "inputs": [[525, 0, 0], [539, 0, 0]]
    }, 
    {
      "op": "broadcast_minimum", 
      "name": "broadcast_minimum3", 
      "inputs": [[525, 2, 0], [539, 2, 0]]
    }, 
    {
      "op": "elemwise_add", 
      "name": "_plus22", 
      "inputs": [[543, 0, 0], [544, 0, 0]]
    }, 
    {
      "op": "elemwise_mul", 
      "name": "_mul6", 
      "inputs": [[542, 0, 0], [545, 0, 0]]
    }, 
    {
      "op": "_plus_scalar", 
      "name": "_plusscalar1", 
      "attr": {"scalar": "1.0"}, 
      "inputs": [[546, 0, 0]]
    }, 
    {
      "op": "elemwise_add", 
      "name": "_plus17", 
      "inputs": [[525, 0, 0], [525, 2, 0]]
    }, 
    {
      "op": "elemwise_add", 
      "name": "_plus18", 
      "inputs": [[525, 1, 0], [525, 3, 0]]
    }, 
    {
      "op": "elemwise_mul", 
      "name": "_mul4", 
      "inputs": [[548, 0, 0], [549, 0, 0]]
    }, 
    {
      "op": "elemwise_add", 
      "name": "_plus19", 
      "inputs": [[539, 0, 0], [539, 2, 0]]
    }, 
    {
      "op": "elemwise_add", 
      "name": "_plus20", 
      "inputs": [[539, 1, 0], [539, 3, 0]]
    }, 
    {
      "op": "elemwise_mul", 
      "name": "_mul5", 
      "inputs": [[551, 0, 0], [552, 0, 0]]
    }, 
    {
      "op": "elemwise_add", 
      "name": "_plus23", 
      "inputs": [[550, 0, 0], [553, 0, 0]]
    }, 
    {
      "op": "elemwise_sub", 
      "name": "_minus0", 
      "inputs": [[554, 0, 0], [546, 0, 0]]
    }, 
    {
      "op": "_plus_scalar", 
      "name": "_plusscalar2", 
      "attr": {"scalar": "1.0"}, 
      "inputs": [[555, 0, 0]]
    }, 
    {
      "op": "elemwise_div", 
      "name": "_div1", 
      "inputs": [[547, 0, 0], [556, 0, 0]]
    }, 
    {
      "op": "log", 
      "name": "log0", 
      "inputs": [[557, 0, 0]]
    }, 
    {
      "op": "_mul_scalar", 
      "name": "_mulscalar4", 
      "attr": {"scalar": "-1.0"}, 
      "inputs": [[558, 0, 0]]
    }, 
    {
      "op": "elemwise_sub", 
      "name": "_minus1", 
      "inputs": [[539, 4, 0], [525, 4, 0]]
    }, 
    {
      "op": "cos", 
      "name": "cos0", 
      "inputs": [[560, 0, 0]]
    }, 
    {
      "op": "_rminus_scalar", 
      "name": "_rminusscalar1", 
      "attr": {"scalar": "1"}, 
      "inputs": [[561, 0, 0]]
    }, 
    {
      "op": "_mul_scalar", 
      "name": "_mulscalar5", 
      "attr": {"scalar": "20"}, 
      "inputs": [[562, 0, 0]]
    }, 
    {
      "op": "elemwise_add", 
      "name": "_plus24", 
      "inputs": [[559, 0, 0], [563, 0, 0]]
    }, 
    {
      "op": "elemwise_mul", 
      "name": "_mul7", 
      "inputs": [[564, 0, 0], [0, 0, 0]]
    }, 
    {
      "op": "elemwise_mul", 
      "name": "_mul8", 
      "inputs": [[565, 0, 0], [510, 0, 0]]
    }, 
    {
      "op": "mean", 
      "name": "mean0", 
      "inputs": [[566, 0, 0]]
    }, 
    {
      "op": "MakeLoss", 
      "name": "makeloss1", 
      "inputs": [[567, 0, 0]]
    }
  ], 
  "arg_nodes": [
    0, 
    1, 
    7, 
    9, 
    10, 
    11, 
    12, 
    16, 
    18, 
    19, 
    20, 
    21, 
    24, 
    26, 
    27, 
    28, 
    29, 
    32, 
    34, 
    35, 
    36, 
    37, 
    39, 
    41, 
    42, 
    43, 
    44, 
    48, 
    50, 
    51, 
    52, 
    53, 
    56, 
    58, 
    59, 
    60, 
    61, 
    64, 
    66, 
    67, 
    68, 
    69, 
    73, 
    75, 
    76, 
    77, 
    78, 
    81, 
    83, 
    84, 
    85, 
    86, 
    89, 
    91, 
    92, 
    93, 
    94, 
    99, 
    101, 
    102, 
    103, 
    104, 
    107, 
    109, 
    110, 
    111, 
    112, 
    115, 
    117, 
    118, 
    119, 
    120, 
    122, 
    124, 
    125, 
    126, 
    127, 
    131, 
    133, 
    134, 
    135, 
    136, 
    139, 
    141, 
    142, 
    143, 
    144, 
    147, 
    149, 
    150, 
    151, 
    152, 
    156, 
    158, 
    159, 
    160, 
    161, 
    164, 
    166, 
    167, 
    168, 
    169, 
    172, 
    174, 
    175, 
    176, 
    177, 
    181, 
    183, 
    184, 
    185, 
    186, 
    189, 
    191, 
    192, 
    193, 
    194, 
    197, 
    199, 
    200, 
    201, 
    202, 
    207, 
    209, 
    210, 
    211, 
    212, 
    215, 
    217, 
    218, 
    219, 
    220, 
    223, 
    225, 
    226, 
    227, 
    228, 
    230, 
    232, 
    233, 
    234, 
    235, 
    239, 
    241, 
    242, 
    243, 
    244, 
    247, 
    249, 
    250, 
    251, 
    252, 
    255, 
    257, 
    258, 
    259, 
    260, 
    264, 
    266, 
    267, 
    268, 
    269, 
    272, 
    274, 
    275, 
    276, 
    277, 
    280, 
    282, 
    283, 
    284, 
    285, 
    289, 
    291, 
    292, 
    293, 
    294, 
    297, 
    299, 
    300, 
    301, 
    302, 
    305, 
    307, 
    308, 
    309, 
    310, 
    314, 
    316, 
    317, 
    318, 
    319, 
    322, 
    324, 
    325, 
    326, 
    327, 
    330, 
    332, 
    333, 
    334, 
    335, 
    339, 
    341, 
    342, 
    343, 
    344, 
    347, 
    349, 
    350, 
    351, 
    352, 
    355, 
    357, 
    358, 
    359, 
    360, 
    365, 
    367, 
    368, 
    369, 
    370, 
    373, 
    375, 
    376, 
    377, 
    378, 
    381, 
    383, 
    384, 
    385, 
    386, 
    388, 
    390, 
    391, 
    392, 
    393, 
    397, 
    399, 
    400, 
    401, 
    402, 
    405, 
    407, 
    408, 
    409, 
    410, 
    413, 
    415, 
    416, 
    417, 
    418, 
    422, 
    424, 
    425, 
    426, 
    427, 
    430, 
    432, 
    433, 
    434, 
    435, 
    438, 
    440, 
    441, 
    442, 
    443, 
    447, 
    450, 
    452, 
    453, 
    454, 
    455, 
    457, 
    459, 
    460, 
    461, 
    462, 
    464, 
    467, 
    469, 
    470, 
    471, 
    472, 
    474, 
    476, 
    477, 
    478, 
    479, 
    481, 
    484, 
    486, 
    487, 
    488, 
    489, 
    491, 
    493, 
    494, 
    495, 
    496, 
    498, 
    500, 
    501, 
    502, 
    503, 
    505, 
    506, 
    510, 
    524, 
    526, 
    527, 
    531, 
    532
  ], 
  "node_row_ptr": [
    0, 
    1, 
    2, 
    5, 
    6, 
    7, 
    8, 
    9, 
    10, 
    11, 
    12, 
    13, 
    14, 
    15, 
    18, 
    19, 
    20, 
    21, 
    22, 
    23, 
    24, 
    25, 
    26, 
    29, 
    30, 
    31, 
    32, 
    33, 
    34, 
    35, 
    36, 
    39, 
    40, 
    41, 
    42, 
    43, 
    44, 
    45, 
    46, 
    49, 
    50, 
    51, 
    52, 
    53, 
    54, 
    55, 
    58, 
    59, 
    60, 
    61, 
    62, 
    63, 
    64, 
    65, 
    66, 
    69, 
    70, 
    71, 
    72, 
    73, 
    74, 
    75, 
    76, 
    79, 
    80, 
    81, 
    82, 
    83, 
    84, 
    85, 
    86, 
    89, 
    90, 
    91, 
    92, 
    93, 
    94, 
    95, 
    96, 
    97, 
    100, 
    101, 
    102, 
    103, 
    104, 
    105, 
    106, 
    107, 
    110, 
    111, 
    112, 
    113, 
    114, 
    115, 
    116, 
    117, 
    120, 
    121, 
    122, 
    123, 
    124, 
    125, 
    126, 
    127, 
    128, 
    129, 
    132, 
    133, 
    134, 
    135, 
    136, 
    137, 
    138, 
    139, 
    142, 
    143, 
    144, 
    145, 
    146, 
    147, 
    148, 
    149, 
    152, 
    153, 
    154, 
    155, 
    156, 
    157, 
    158, 
    161, 
    162, 
    163, 
    164, 
    165, 
    166, 
    167, 
    168, 
    169, 
    172, 
    173, 
    174, 
    175, 
    176, 
    177, 
    178, 
    179, 
    182, 
    183, 
    184, 
    185, 
    186, 
    187, 
    188, 
    189, 
    192, 
    193, 
    194, 
    195, 
    196, 
    197, 
    198, 
    199, 
    200, 
    203, 
    204, 
    205, 
    206, 
    207, 
    208, 
    209, 
    210, 
    213, 
    214, 
    215, 
    216, 
    217, 
    218, 
    219, 
    220, 
    223, 
    224, 
    225, 
    226, 
    227, 
    228, 
    229, 
    230, 
    231, 
    234, 
    235, 
    236, 
    237, 
    238, 
    239, 
    240, 
    241, 
    244, 
    245, 
    246, 
    247, 
    248, 
    249, 
    250, 
    251, 
    254, 
    255, 
    256, 
    257, 
    258, 
    259, 
    260, 
    261, 
    262, 
    263, 
    266, 
    267, 
    268, 
    269, 
    270, 
    271, 
    272, 
    273, 
    276, 
    277, 
    278, 
    279, 
    280, 
    281, 
    282, 
    283, 
    286, 
    287, 
    288, 
    289, 
    290, 
    291, 
    292, 
    295, 
    296, 
    297, 
    298, 
    299, 
    300, 
    301, 
    302, 
    303, 
    306, 
    307, 
    308, 
    309, 
    310, 
    311, 
    312, 
    313, 
    316, 
    317, 
    318, 
    319, 
    320, 
    321, 
    322, 
    323, 
    326, 
    327, 
    328, 
    329, 
    330, 
    331, 
    332, 
    333, 
    334, 
    337, 
    338, 
    339, 
    340, 
    341, 
    342, 
    343, 
    344, 
    347, 
    348, 
    349, 
    350, 
    351, 
    352, 
    353, 
    354, 
    357, 
    358, 
    359, 
    360, 
    361, 
    362, 
    363, 
    364, 
    365, 
    368, 
    369, 
    370, 
    371, 
    372, 
    373, 
    374, 
    375, 
    378, 
    379, 
    380, 
    381, 
    382, 
    383, 
    384, 
    385, 
    388, 
    389, 
    390, 
    391, 
    392, 
    393, 
    394, 
    395, 
    396, 
    399, 
    400, 
    401, 
    402, 
    403, 
    404, 
    405, 
    406, 
    409, 
    410, 
    411, 
    412, 
    413, 
    414, 
    415, 
    416, 
    419, 
    420, 
    421, 
    422, 
    423, 
    424, 
    425, 
    426, 
    427, 
    430, 
    431, 
    432, 
    433, 
    434, 
    435, 
    436, 
    437, 
    440, 
    441, 
    442, 
    443, 
    444, 
    445, 
    446, 
    447, 
    450, 
    451, 
    452, 
    453, 
    454, 
    455, 
    456, 
    457, 
    458, 
    459, 
    462, 
    463, 
    464, 
    465, 
    466, 
    467, 
    468, 
    469, 
    472, 
    473, 
    474, 
    475, 
    476, 
    477, 
    478, 
    479, 
    482, 
    483, 
    484, 
    485, 
    486, 
    487, 
    488, 
    491, 
    492, 
    493, 
    494, 
    495, 
    496, 
    497, 
    498, 
    499, 
    502, 
    503, 
    504, 
    505, 
    506, 
    507, 
    508, 
    509, 
    512, 
    513, 
    514, 
    515, 
    516, 
    517, 
    518, 
    519, 
    522, 
    523, 
    524, 
    525, 
    526, 
    527, 
    528, 
    529, 
    530, 
    533, 
    534, 
    535, 
    536, 
    537, 
    538, 
    539, 
    540, 
    543, 
    544, 
    545, 
    546, 
    547, 
    548, 
    549, 
    550, 
    553, 
    554, 
    555, 
    556, 
    557, 
    558, 
    559, 
    560, 
    561, 
    562, 
    563, 
    564, 
    567, 
    568, 
    569, 
    570, 
    571, 
    572, 
    573, 
    576, 
    577, 
    578, 
    579, 
    580, 
    581, 
    582, 
    583, 
    584, 
    585, 
    588, 
    589, 
    590, 
    591, 
    592, 
    593, 
    594, 
    597, 
    598, 
    599, 
    600, 
    601, 
    602, 
    603, 
    604, 
    605, 
    606, 
    609, 
    610, 
    611, 
    612, 
    613, 
    614, 
    615, 
    618, 
    619, 
    620, 
    621, 
    622, 
    623, 
    624, 
    627, 
    628, 
    629, 
    630, 
    631, 
    632, 
    633, 
    634, 
    635, 
    636, 
    637, 
    638, 
    639, 
    640, 
    641, 
    642, 
    643, 
    644, 
    645, 
    646, 
    647, 
    652, 
    653, 
    654, 
    655, 
    656, 
    657, 
    658, 
    659, 
    660, 
    661, 
    662, 
    663, 
    664, 
    665, 
    670, 
    671, 
    672, 
    673, 
    674, 
    675, 
    676, 
    677, 
    678, 
    679, 
    680, 
    681, 
    682, 
    683, 
    684, 
    685, 
    686, 
    687, 
    688, 
    689, 
    690, 
    691, 
    692, 
    693, 
    694, 
    695, 
    696, 
    697, 
    698, 
    699
  ], 
  "heads": [[523, 0, 0], [568, 0, 0]], 
  "attrs": {"mxnet_version": ["int", 1200]}
}